best_models/resnet3-64/conv_block.onnx (onnx, 894449 bytes, 14 tensors)

onnx::Conv_86 f4 [64, 2, 3, 3]
-0.08105226 -0.03839575 0.053335752 -0.03042449 0.043985747 -0.09404365 0.0059126006 -0.06441694
0.034788568 -0.00091690815 0.07731736 0.018078605 0.06676908 -0.50305444 0.013697619 -0.0183834
0.007811318 -0.06286906 -0.048945818 -0.009131904 -0.0068871584 -0.15735354 0.21506235 0.028685257
-0.01912882 -0.16560388 0.061107688 -0.01751206 0.022689333 0.0009014304 -0.11133532 0.1498527
0.049885176 -0.020212825 -0.07649516 0.012144871 -0.037163626 -0.068116955 0.041642215 -0.109378204
0.017826775 -0.1649527 0.067922555 -0.23741989 0.16956873 -0.044588022 -0.050065555 0.0075364574
-0.09485241 -0.057616096 -0.05471828 0.004939432 -0.09122303 0.035714194 0.13568482 0.30918187
0.23566008 0.30878896 -0.6404058 0.35223964 -0.06391991 -0.10941914 0.13243006 0.009068445
0.25606033 0.22641438 0.13033336 -0.5252626 0.26188827 -0.14293236 -0.046520382 0.032348536
0.07148882 -0.0454194 0.032673575 0.18382148 0.26800123 0.13195778 0.19134504 0.20876025
0.14822732 0.09734409 0.29349765 0.14779168 0.23000376 -0.22034936 0.3615006 0.07419961
-0.2678222 0.12853031 0.50172573 0.37083656 0.3002938 0.65562445 -0.50430185 0.51292866
0.28627023 0.349315 0.11235522 0.1590002 -0.021606354 0.16326058 0.019575907 0.7251336
0.008982504 -0.033765636 0.068942845 0.034746695 0.07052864 -0.20836736 -0.009975568 -0.20339291
0.61397254 -0.05632794 0.025011709 -0.095101126 -0.033974096 0.20124084 0.23431854 -0.039848812
0.28995514 -0.27964935 0.026448015 0.021769563 0.07272708 -0.054441396 0.055787146 -0.072590955
-0.20081201 0.33213618 -0.019844083 -0.24522649 0.19312309 -0.011055536 -0.030441249 -0.15425843
-0.08017543 0.23123877 -0.14854732 -0.10498473 0.16875277 -0.048372783 -0.035826426 -0.017251477
-0.045649186 -0.028572923 -0.05003156 0.085472316 0.5472218 0.0455926 -0.02297957 0.08495193
-0.017292531 0.03787989 0.027608886 0.040956307 0.05228401 0.039233778 -0.0076994086 0.036302745
-0.035019793 0.08961596 -0.02687068 -0.25969458 -0.04435218 -0.03825737 0.09572987 -0.09593572
0.1165315 0.27884388 0.0655485 -0.014439467 -0.37382215 -0.09225755 -0.09107607 0.010824022
-0.20816402 0.031234387 0.25830516 0.036477387 0.16780342 0.8411607 -0.012072333 -0.017622605
0.085586354 -0.0792389 0.054861564 -0.11552661 -0.11397643 0.15760578 0.76368934 -0.07890661
0.0046041505 -0.021002779 -0.14681742 0.01004969 -0.08082516 -0.08139434 0.12515503 0.05170899
0.22288375 0.22033098 -0.4285889 -0.07991687 0.1926661 0.24301942 0.37300664 0.05877627
0.020094367 0.0077137016 0.16312772 -0.11510153 -0.0775928 -0.02611152 0.0021025557 0.2219498
-0.047247298 0.14738047 -0.008789381 0.11310099 -1.3415498 0.008304814 -0.10999558 0.1808854
-0.040442634 -0.22419661 0.03536374 -0.13223936 -0.16332115 0.1248847 -0.028994221 -0.21675898
-0.020487433 -0.21464771 0.2589723 0.032099426 -0.035665296 -0.05608213 -0.20454802 -0.074472755
-0.08337948 -0.24618323 -0.03890848 -0.16336344 -0.0050191134 -0.11897121 -0.09129259 -0.029566588
-0.047955774 -0.007146711 0.14517394 0.0011412975 -0.12039798 0.19905147 0.039871693 0.13695683
00000000: bafe a5bd dd44 1dbd 9776 5a3d c83c f9bc
00000010: 662a 343d f599 c0bd 7dbe c13b 07ed 83bd
00000020: 757e 0e3d aa5c 70ba 9058 9e3d 9519 943c
00000030: 3abe 883d 2dc8 00bf fa6b 603c c998 96bc
00000040: 16f6 ff3b 7ec1 80bd 697b 48bd fb9d 15bc
00000050: acad e1bb 4921 21be 4e39 5c3e 58fd ea3c
00000060: 0bb4 9cbc 1094 29be 0e4c 7a3d 7475 8fbc
00000070: fbde b93c f84d 6c3a c603 e4bd fc72 193e
00000080: 6654 4c3d 5e95 a5bc 7fa9 9cbd 48fb 463c
00000090: e338 18bd e780 8bbd 0791 2a3d ae01 e0bd
000000a0: 7509 923c 5ce9 28be fb1a 8b3d 331e 73be
000000b0: 6da3 2d3e eea1 36bd 8a11 4dbd 63f4 f63b
000000c0: fb41 c2bd dbfe 6bbd 4620 60bd f5da a13b
000000d0: 24d3 babd 0c49 123d f6f0 0a3e 164d 9e3e
000000e0: e050 713e 9619 9e3e a2f1 23bf c158 b43e
000000f0: 71e8 82bd 2417 e0bd bf9b 073e d193 143c
00000100: 571a 833e 2cd9 673e 1c76 053e 9c77 06bf
00000110: 3816 863e dc5c 12be 288c 3ebd e67f 043d
00000120: bb68 923d b109 3abd bad4 053d b33b 3c3e
00000130: 7537 893e f11f 073e f4ef 433e 3fc5 553e
00000140: e7c8 173e 575c c73d 5345 963e b456 173e
00000150: 1b86 6b3e 43a3 61be 9b16 b93e f7f5 973d
00000160: fe1f 89be 739d 033e 1971 003f 4ade bd3e
00000170: 1cc0 993e 01d7 273f ed19 01bf 4b4f 033f
00000180: 0392 923e 6ad9 b23e 7e1a e63d f3d0 223e
00000190: cfff b0bc c82d 273e a75d a03c 5ba2 393f
000001a0: 5a2b 133c d64d 0abd e831 8d3d 8d52 0e3d
000001b0: 5271 903d 415e 55be 9170 23bc 3b46 50be
000001c0: 4e2d 1d3f 20b8 66bd 5be5 cc3c 61c4 c2bd
000001d0: 6c28 0bbd 1412 4e3e 33f1 6f3e 8238 23bd
000001e0: 0075 943e 332e 8fbe 82a9 d83c 1556 b23c
000001f0: eff1 943d f1fd 5ebd 1081 643d 91aa 94bd
00000200: aaa1 4dbe c10d aa3e 0f90 a2bc a71c 7bbe
00000210: 0fc2 453e 4722 35bc ed5f f9bc ecf5 1dbe
00000220: 0433 a4bd dbc9 6c3e ca1c 18be 3c02 d7bd
00000230: 87cd 2c3e 8a22 46bd bbbe 12bd f852 8dbc
00000240: a4fa 3abd c311 eabc e5ed 4cbd 1c0c af3d
00000250: ba16 0c3f 4ebf 3a3d a73f bcbc 47fb ad3d
00000260: 11a9 8dbc f227 1b3d 082c e23c cdc1 273d
00000270: c227 563d 99b3 203d 524b fcbb 30b2 143d
00000280: ea70 0fbd 9388 b73d e61f dcbc b0f6 84be
00000290: a2aa 35bd c3b3 1cbd 060e c43d f279 c4bd
000002a0: 11a8 ee3d a0c4 8e3e 4b3e 863d 8493 6cbc
000002b0: 9e65 bfbe 87f1 bcbd 1786 babd 3d57 313c
000002c0: f328 55be 42df ff3c 9340 843e 5069 153d
000002d0: a9d4 2b3e 4f56 573f 09cb 45bc 485d 90bc
000002e0: e647 af3d 0148 a2bd 85b6 603d 3799 ecbd
000002f0: 796c e9bd 6963 213e 2581 433f ca99 a1bd
00000300: 6ade 963b 050e acbc 4e57 16be 74a7 243c
00000310: a987 a5bd 13b2 a6bd a428 003e cecc 533d
00000320: a33b 643e 729e 613e 0170 dbbe 75ab a3bd
00000330: 434a 453e 15da 783e bafa be3e 63bf 703d
00000340: f19c a43c 38c3 fc3b f40a 273e 5aba ebbd
00000350: f9e8 9ebd d4e7 d5bc 08cb 093b cf46 633e
00000360: 6286 41bd e8ea 163e 5601 10bc 7ea1 e73d
00000370: e7b7 abbf ea10 083c 5d45 e1bd 063a 393e
00000380: 2da7 25bd cc93 65be 92d9 103d c169 07be
00000390: a93d 27be 8dc3 ff3d 4a85 edbc 11f6 5dbe
000003a0: 43d5 a7bc 9ccc 5bbe 0498 843e b07a 033d
000003b0: c615 12bd 60b6 65bd 0975 51be 2c85 98bd
000003c0: dcc2 aabd 7517 7cbe 805e 1fbd bf48 27be
000003d0: 6077 a4bb 2ea7 f3bd 9cf7 babd a135 f2bc
000003e0: 466d 44bd f52e eabb 7aa8 143e 9797 953a
000003f0: 3793 f6bd 26d4 4b3e 8050 233d 693e 0c3e

onnx::Conv_87 f4 [64]
0.6855525 0.07459909 -0.3744993 -0.41486794 -1.3065454 0.8516179 1.1216909 1.2469358
-0.79493374 0.448813 -0.92666435 -0.8998857 0.25927848 1.3303051 -0.11898131 -0.7490816
-1.0576005 -1.0588503 -1.0072613 1.1196736 0.80842686 0.6561598 -0.046467397 -0.52985245
0.41580832 -0.45732456 -0.82254124 0.22924227 -0.107742324 1.1290079 -0.64860576 0.29102203
-0.64969945 -0.32122526 0.32166067 -0.026577886 0.8521409 -0.81849873 0.292617 -0.8278963
1.3283652 -1.1705393 0.047535792 0.020073514 0.02350479 0.40061453 0.048125826 1.4542403
0.55115247 -1.1492192 -0.26459172 -0.81083304 -0.41220695 0.0048196567 0.57185644 -1.3523532
-0.6336178 -0.8701461 -0.10212919 -0.59260267 -1.3833368 0.15126708 0.5154476 0.5362193
00000000: 5e80 2f3f 68c7 983d 5fbe bfbe 9269 d4be
00000010: e13c a7bf a103 5a3f 9193 8f3f 989b 9f3f
00000020: c780 4bbf d1ca e53e e039 6dbf e95e 66bf
00000030: 26c0 843e 7047 aa3f 79ac f3bd d0c3 3fbf
00000040: 745f 87bf 6888 87bf f0ed 80bf 7751 8f3f
00000050: 10f5 4e3f 17fa 273f 9954 3ebd 69a4 07bf
00000060: d4e4 d43e 7226 eabe 1092 52bf 7cbe 6a3e
00000070: 02a8 dcbd 5583 903f 070b 26bf d700 953e
00000080: b452 26bf a377 a4be b5b0 a43e deb9 d9bc
00000090: e825 5a3f 2289 51bf e5d1 953e 03f1 53bf
000000a0: df07 aa3f 3bd4 95bf e4b4 423d 3671 a43c
000000b0: 1e8d c03c 591d cd3e 961f 453d 8c24 ba3f
000000c0: 5418 0d3f 9d19 93bf 9178 87be c192 4fbf
000000d0: ca0c d3be 36ee 9d3b 2f65 123f e919 adbf
000000e0: c734 22bf e5c1 5ebf 1c29 d1bd cfb4 17bf
000000f0: 2e11 b1bf c2e5 1a3e 60f4 033f ab45 093f

onnx::Conv_89 f4 [64, 64, 3, 3]
0.0002462772 -0.0011245965 -0.00048600457 -4.3133034e-05 0.00022100132 -0.00057192374 0.00056596356 0.0003320695
0.0007295475 6.0577997e-05 0.00056287623 0.0007624234 0.00022405434 0.001969682 0.0009417643 -0.00093654596
4.710237e-05 0.00044481843 0.0005765112 0.0005813411 0.0010999711 0.0010805918 0.00087836594 0.0007505646
0.0014455809 0.0019577956 0.000218975 9.460383e-05 -0.00042931148 -0.0015948763 0.0013865043 -0.00083591393
-8.8363435e-05 -0.0015343449 -0.000965127 0.00042264583 4.1944182e-05 -0.0002837559 -0.0009356719 -0.0007706053
-0.000283407 0.0002213645 3.127044e-05 -0.00014131323 0.00031030408 -0.0011545256 -0.0016123798 -7.339261e-05
-0.0011639063 -0.00043146667 -0.0010131999 -0.0003677075 -0.0009016369 -0.0008059179 -0.0004720656 -0.00079289445
-0.0013307508 -0.00041452784 0.0019230123 0.00016077806 0.0011955824 0.00038688647 2.9550707e-05 -0.0014739034
-0.0011755534 -0.0010878198 0.00050891424 -0.0003522434 -0.0006273117 0.0009345865 -0.0010594077 -0.0012322157
0.0007902354 0.002275173 0.0010483214 -0.00030754544 -0.00057954463 0.0015212185 0.0006541285 0.00050209014
0.0010071334 -0.0015076011 -2.3202103e-05 -0.0007254047 -0.0013970195 -0.0017239616 -0.001370345 0.00089130417
0.00044136227 -0.0005199242 0.0011046412 0.00062921905 0.000356311 -0.0006741738 0.0011934827 0.00068293296
-0.0012143343 -0.0011053289 -0.0006277245 0.0012096346 0.00035358308 -0.00022551425 0.0006387502 -0.0012633557
-0.0001375533 -0.0010942359 0.00036556143 -0.0004178466 -0.0012525924 -0.0021639906 -0.0010955671 -0.00021889785
-0.0017083804 -0.00044408295 -0.0008263668 -0.00048804336 -0.0023127818 -0.00088692765 -0.00029141104 -9.6887066e-05
0.0003878498 0.0010978158 -0.001442505 -0.0010145274 -0.0020017594 -0.001325467 0.00036916358 -0.002152687
-0.00027985478 0.0011265338 -0.0024743474 -0.000978683 0.0003418334 -0.0007369478 -0.00055937277 0.0009186171
0.0013397466 0.0008950649 0.0003027811 0.00017418156 0.00046063244 -0.00016589803 -3.4226792e-05 -0.0001616846
0.0015346743 0.0020297708 0.0021467826 0.0014403779 -0.0005125062 0.0012024788 0.0010990879 0.0007838072
-0.00010776837 0.0001271779 0.00058362645 -0.0005507612 -0.0005945762 -0.0009771464 0.0007107265 -0.00039908043
-0.0021825705 -0.0002733607 0.0012381453 0.0016925884 0.0010215009 0.0010178841 9.0137155e-06 0.0015718916
0.0017781262 0.0008199168 0.00036324898 0.0009103182 -0.00051382004 0.0006203489 0.00040673654 0.0010107346
-0.00030682248 0.0014893054 0.00034808627 0.0012217334 0.0009778775 0.00022441584 0.001249516 0.00057468744
-0.0007541617 0.0005860605 0.00089731574 -0.0014891154 -0.00041291077 0.0017104591 -0.00028798665 0.0012809887
-0.0008333324 -0.000694122 -8.668391e-05 0.00019022875 -0.0009812432 0.0011013309 0.000782341 0.0014801283
-0.00083332 -0.00019618684 0.0021031322 0.001635664 0.0018195213 0.0006004045 -3.1242475e-05 3.0460144e-05
-0.00060398446 -0.0015697402 -0.0012204713 -0.00081496115 -0.00024839357 0.00021363908 -0.0013502468 -0.00056503434
-0.0007403119 0.00034483787 0.0007324164 -0.0014845303 0.002424215 0.0010169864 3.0307287e-05 0.00017435563
-0.0015654413 0.0007710501 -4.431345e-06 0.000693135 0.0005862707 -0.0014682113 0.0007386113 0.0007739906
0.00021492658 0.0016791195 1.47111805e-05 -0.00074204156 0.000685519 -0.000597586 -0.0037104774 0.00031907845
0.0009147392 2.196921e-05 0.0016490198 -0.00022734744 -0.0006699434 -4.276697e-05 0.00097011274 0.0008307984
-0.00014059844 0.00041575232 2.996315e-05 -0.0008557982 -0.00043848087 -0.0008348658 0.00035333948 0.00010483977
00000000: c41e 8139 3267 93ba 6ece feb9 bee9 34b8
00000010: 97bc 6739 27ed 15ba 2c5d 143a 9d19 ae39
00000020: 1b3f 3f3a 2115 7e38 fc8d 133a 5edd 473a
00000030: 21f0 6a39 c815 013b bbe0 763a 8982 75ba
00000040: c98f 4538 8536 e939 0321 173a 2465 183a
00000050: e82c 903a a5a2 8d3a 2442 663a 8ac1 443a
00000060: a579 bd3a 5c4e 003b a79c 6539 0b66 c638
00000070: 3615 e1b9 2b0b d1ba 5dbb b53a 3c21 5bba
00000080: c24f b9b8 121c c9ba 9400 7dba 9096 dd39
00000090: 39ed 2f38 12c5 94b9 e147 75ba 7202 4aba
000000a0: 3e96 94b9 151e 6839 6128 0338 7b2d 14b9
000000b0: 4fb0 a239 7353 97ba 7d56 d3ba 5cea 99b8
000000c0: 378e 98ba 7a36 e2b9 59cd 84ba ddc8 c0b9
000000d0: d45b 6cba 3c44 53ba 937f f7b9 3fda 4fba
000000e0: 966c aeba fc54 d9b9 960d fc3a 8896 2839
000000f0: 17b5 9c3a 06d7 ca39 a9e3 f737 fe2f c1ba
00000100: 0715 9aba 2d95 8eba a868 053a 4fad b8b9
00000110: 2d72 24ba 0aff 743a d3db 8aba 4c82 a1ba
00000120: cd27 4f3a 121b 153b d467 893a 0d3e a1b9
00000130: 95ec 17ba 9f63 c73a d279 2b3a b39e 033a
00000140: ca01 843a b39a c5ba 23a2 c2b7 1629 3eba
00000150: 321c b7ba 8df6 e1ba 269d b3ba 69a6 693a
00000160: a466 e739 864b 08ba 9cc9 903a 2df2 243a
00000170: 41cf ba39 0abb 30ba a26e 9c3a db06 333a
00000180: 4c2a 9fba afe0 90ba e18d 24ba 9a8c 9e3a
00000190: 1e61 b939 0578 6cb9 cd71 273a 2f97 a5ba
000001a0: 2f3c 10b9 776c 8fba d3a8 bf39 6c12 dbb9
000001b0: 072e a4ba bdd1 0dbb 2299 8fba f287 65b9
000001c0: bceb dfba ced3 e8b9 8aa0 58ba 12e0 ffb9
000001d0: 0a92 17bb b580 68ba 87c8 98b9 d92f cbb8
000001e0: 5258 cb39 96e4 8f3a 7012 bdba e4f9 84ba
000001f0: f32f 03bb 4bbb adba 4c8c c139 1814 0dbb
00000200: 79b9 92b9 34a8 933a a928 22bb 2747 80ba
00000210: 1a38 b339 bb2f 41ba dfa2 12ba 5acf 703a
00000220: 709a af3a caa2 6a3a 97be 9e39 82a4 3639
00000230: 0a81 f139 eaf4 2db9 bd8e 0fb8 e189 29b9
00000240: 2027 c93a e705 053b 09b1 0c3b 10cb bc3a
00000250: b559 06ba 7e9c 9d3a 450f 903a 6978 4d3a
00000260: b401 e2b8 0f5b 0539 82fe 183a f560 10ba
00000270: 55dd 1bba 9813 80ba 0c50 3a3a ab3b d1b9
00000280: 7509 0fbb da51 8fb9 4349 a23a d8d9 dd3a
00000290: e2e3 853a 866a 853a 9d39 1737 ee07 ce3a
000002a0: 0410 e93a afef 563a 7472 be39 6ca2 6e3a
000002b0: e1b1 06ba e99e 223a 413f d539 a07a 843a
000002c0: 04dd a0b9 cc34 c33a 597f b639 9222 a03a
000002d0: 202c 803a 2b51 6b39 cdc6 a33a 9fa6 163a
000002e0: efb2 45ba dba1 193a d739 6b3a 6c2e c3ba
000002f0: f27b d8b9 7c31 e03a eafc 96b9 d9e6 a73a
00000300: fe73 5aba bdf5 35ba 12ca b5b8 2478 4739
00000310: 0f9d 80ba 885a 903a 0416 4d3a dd00 c23a
00000320: 2973 5aba 81b7 4db9 b4d4 093b c763 d63a
00000330: 017d ee3a 7764 1d3a 5a0a 03b8 a984 ff37
00000340: b654 1eba bebf cdba 39f8 9fba 1ea3 55ba
00000350: d23a 82b9 4e04 6039 c4fa b0ba d01e 14ba
00000360: 7e11 42ba 5bcb b439 a2ff 3f3a 9294 c2ba
00000370: 94df 1e3b 674c 853a 673c fe37 3cd3 3639
00000380: 7e2f cdba 4c20 4a3a f7b0 94b6 81b3 353a
00000390: f6af 193a ff70 c0ba 5e9f 413a a1e5 4a3a
000003a0: ea5d 6139 e715 dc3a 0ad0 7637 9185 42ba
000003b0: 67b4 333a 51a7 1cba 7b2b 73bb fc49 a739
000003c0: 1ccb 6f3a 854a b837 ec23 d83a 1d64 6eb9
000003d0: 249f 2fba af60 33b8 2a4f 7e3a f0c9 593a
000003e0: 9b6d 13b9 55f9 d939 6059 fb37 a557 60ba
000003f0: e8e3 e5b9 e5da 5aba 6c40 b939 6cdd db38

onnx::Conv_90 f4 [64]
0.08383773 -0.041914262 0.43094838 2.4502695 -0.028429143 3.1630294 -0.03785404 1.9697794
0.22205758 -0.66394114 -0.72483027 -3.0072412 -0.4193239 0.07254456 -2.6842594 -0.3558429
-1.1741618 0.060455315 -1.0515641 -1.253139 -0.19524318 0.8788015 -0.057457212 0.019901738
-0.5301591 0.06118233 0.041132145 0.28671563 -0.4583186 -0.005318355 0.27116877 0.034273583
0.093071625 -0.049485832 -0.43079332 -4.2528605 0.13715029 2.5766485 -0.86077666 0.23272794
-0.43072277 -0.026282147 -0.16900516 -0.1402616 4.9590874 -0.27901644 -0.015292846 -0.15850899
-0.43845266 0.00902677 3.816701 0.23302284 0.029781552 0.0096718585 -1.1631945 -0.54365754
3.3613698 -5.6846714 2.3407798 -0.054444585 0.160058 0.008872652 3.5435376 -0.9827169
00000000: 1eb3 ab3d 4aae 2bbd 44a5 dc3e 37d1 1c40
00000010: 3ce4 e8bc 136f 4a40 d60c 1bbd bb21 fc3f
00000020: 1063 633e 0cf8 29bf 7a8e 39bf a476 40c0
00000030: 9fb1 d6be 3e92 943d e8ca 2bc0 0a31 b6be
00000040: ef4a 96bf fe9f 773d a799 86bf dc66 a0bf
00000050: d4ed 47be 23f9 603f 4158 6bbd f808 a33c
00000060: 82b8 07bf 539a 7a3d 2e7a 283d 64cc 923e
00000070: bca8 eabe 9845 aebb a2d6 8a3e 7562 0c3d
00000080: 569c be3d a8b1 4abd f190 dcbe 6f17 88c0
00000090: 2071 0c3e cfe7 2440 dc5b 5cbf 3c50 6e3e
000000a0: b287 dcbe a84d d7bc b00f 2dbe bda0 0fbe
000000b0: d8b0 9e40 3edb 8ebe d88e 7abc 2e50 22be
000000c0: de7c e0be 04e5 133c d444 7440 8a9d 6e3e
000000d0: 71f8 f33c b776 1e3c 8fe3 94bf 242d 0bbf
000000e0: af20 5740 d4e8 b5c0 56cf 1540 4901 5fbd
000000f0: 3fe6 233e 9a5e 113c 52c9 6240 5693 7bbf

onnx::Conv_92 f4 [64, 64, 3, 3]
0.0011118539 0.017648665 0.00685781 0.01795759 -0.021436939 -0.017042328 0.02629208 0.036607835
-0.0029538844 0.013386356 -0.021529943 0.0025160338 0.025907006 0.036814712 0.07611609 0.010281985
0.065801375 -0.061063163 0.12667094 -0.028236588 -0.010126537 0.10547958 0.011451079 -0.10860916
-0.013458547 -0.08619063 -0.12016426 0.1746676 -0.12501083 0.0039696763 -0.11449325 -0.018021507
0.072533876 -0.07255696 -0.04028263 0.011517403 0.12697962 -0.024826216 -0.047440052 -0.071229346
0.005598599 0.020168113 -0.027495151 -0.015609365 0.034097753 -0.2063709 0.016112816 0.034617286
0.09611166 -0.64282006 0.050403915 0.007595175 0.110634536 0.05412159 0.00922419 -0.0071008224
-0.02573107 -0.03715267 0.009088302 0.02525221 -0.01699268 -0.028771788 0.021599842 0.1865055
0.061178956 0.10394089 -0.068659484 0.021073207 0.04650069 0.0072197416 -0.07357766 0.092337266
0.026929343 0.075580366 0.018468292 -0.15295407 -0.08404395 -0.07241708 0.026999991 0.032030858
0.043025985 -0.07847911 -0.00060585496 0.10867446 0.076778874 -0.48582023 0.035751767 0.041610237
0.016583757 0.06920516 0.047523107 0.1781498 0.1364752 0.030363154 -0.069658265 0.024636285
0.08907597 -0.0032571594 0.027948728 -0.04892146 0.004824229 -0.008117956 0.073603 0.18927272
0.03402819 -0.031591017 0.037628684 0.020122582 0.016424047 0.01881393 -0.14480416 -0.016074788
-0.05640802 -0.083059914 -0.10200296 0.027670076 -0.016940791 -0.0025651525 -0.009182483 0.015949475
0.029805038 -0.005990966 -0.015148857 0.02361137 0.023410223 -0.014869403 -0.06520971 -0.013653937
-0.08227091 -0.13945729 0.07961933 -0.052496996 -0.06107842 -0.1624834 -0.048618417 -0.005094756
0.0045506665 -0.022466058 0.016801579 -0.027857028 0.06450446 -0.07336971 0.03203451 -0.016208794
0.034504768 0.044898536 -0.11862837 -0.15019523 0.07271771 -0.10195726 -0.06264518 -0.1083732
-0.07715978 -0.07381564 0.08158103 -0.0032198103 0.0076418477 -0.04701223 0.01463676 -0.050825983
-0.036521897 -0.056509033 -0.046524197 0.118239984 0.16715257 -0.0048490246 -0.031964783 0.03600274
0.0072761797 0.058415208 0.06979432 -0.0030058525 0.031707935 -0.04917212 0.061634086 0.10938204
-0.09439531 -0.124141335 0.028764704 0.061986867 -0.02819412 0.050820827 0.061014667 0.004287711
-0.015480236 0.08400863 -0.07169983 0.015717095 -0.016630404 -0.039158992 0.00819894 -0.039275136
0.007640789 -0.088477306 -0.07700451 0.089134276 -0.009558149 -0.023018746 -0.026942426 0.02097989
0.012637135 0.04414403 -0.005391528 -0.044773586 -0.027447496 -0.012224487 0.028609006 -0.014048513
0.041184124 0.014585466 -0.004692335 -0.054128736 -0.03036185 0.033545822 0.0164268 -0.0022453275
0.09685341 0.0619044 -0.05417346 -0.018391237 0.49545285 -0.052053604 0.008341927 0.041102674
-0.021353211 -0.015874865 0.005938055 0.023611275 0.031305473 -0.010206617 -0.04130751 0.013793709
0.0064939894 -0.05215476 -0.024316655 0.037283033 0.00041353545 -0.032307804 -0.032514777 0.010243176
0.037074555 -0.003384829 -0.055232406 -0.069834396 0.044011187 -0.013231168 0.030760538 -0.021121725
0.01959002 -0.024393698 -0.03743971 -0.06562226 0.085610144 -0.019149164 0.05958723 0.051594026
00000000: a0bb 913a ef93 903c 7bb7 e03b cc1b 933c
00000010: 859c afbc 5a9c 8bbc 7d62 d73c 19f2 153d
00000020: f595 41bb 7252 5b3c 905f b0bc 0be4 243b
00000030: ee3a d43c 06cb 163d c1e2 9b3d c575 283c
00000040: dfc2 863d 5e1d 7abd 07b6 013e 6b50 e7bc
00000050: c6e9 25bc ae05 d83d 4e9d 3b3c 7b6e debd
00000060: 3d81 5cbc b784 b0bd ae18 f6bd 10dc 323e
00000070: d702 00be 0f14 823b 707b eabd d7a1 93bc
00000080: a48c 943d be98 94bd 66ff 24bd 7db3 3c3c
00000090: f206 023e 5960 cbbc 8050 42bd b1e0 91bd
000000a0: 7474 b73b 9937 a53c 833d e1bc 6cbe 7fbc
000000b0: 16aa 0b3d e552 53be 06ff 833c dbca 0d3d
000000c0: 31d6 c43d db8f 24bf 5674 4e3d f2e0 f83b
000000d0: 5c94 e23d 9aae 5d3d 0f21 173c 04ae e8bb
000000e0: f7c9 d2bc 662d 18bd 1ae7 143c b9dd ce3c
000000f0: 3c34 8bbc d0b2 ebbc 27f2 b03c 4cfb 3e3e
00000100: c996 7a3d f6de d43d 589d 8cbd b8a1 ac3c
00000110: 8277 3e3d 9593 ec3b e2af 96bd 521b bd3d
00000120: ed9a dc3c e1c9 9a3d d14a 973c fe9f 1cbe
00000130: 3c1f acbd 684f 94bd 162f dd3c ca32 033d
00000140: 043c 303d a8b9 a0bd 3dd2 1eba b790 de3d
00000150: 3e3e 9d3d 6ebd f8be 7270 123d 7f6f 2a3d
00000160: a9da 873c 6fbb 8d3d 97a7 423d e76c 363e
00000170: 28c0 0b3e 26bc f83c fea8 8ebd 09d2 c93c
00000180: 766d b63d 1176 55bb bbf4 e43c de61 48bd
00000190: 9114 9e3b 2d01 05bc 2bbd 963d b5d0 413e
000001a0: 2561 0b3d 9565 01bd 8920 1a3d 1dd8 a43c
000001b0: b98b 863c ac1f 9a3c 8b47 14be 46af 83bc
000001c0: 190c 67bd 511b aabd eee6 d0bd 5bac e23c
000001d0: 6ac7 8abc 1e1c 28bb 2072 16bc 79a8 823c
000001e0: b229 f43c de4f c4bb e932 78bc a26c c13c
000001f0: ccc6 bf3c cc9e 73bc ab8c 85bd c3b4 5fbc
00000200: a77d a8bd e4cd 0ebe 760f a33d 1707 57bd
00000210: 5e2d 7abd 0c62 26be 1b24 47bd e9f1 a6bb
00000220: c21d 953b bd0a b8bc 77a3 893c 6c34 e4bc
00000230: ea1a 843d dc42 96bd 9e36 033d 4ec8 84bc
00000240: df54 0d3d 87e7 373d 6ef3 f2bd c7cc 19be
00000250: 06ed 943d f8ce d0bd 1e4c 80bd c5f2 ddbd
00000260: f205 9ebd a72c 97bd f413 a73d 7403 53bb
00000270: 7768 fa3b e58f 40bd 05cf 6f3c e82e 50bd
00000280: fc97 15bd 0476 67bd 2890 3ebd ce27 f23d
00000290: 0b2a 2b3e 91e4 9ebb 81ed 02bd 9c77 133d
000002a0: 056d ee3b c944 6f3d 53f0 8e3d d6fd 44bb
000002b0: 2ee0 013d b468 49bd 0674 7c3d b103 e03d
000002c0: 5452 c1bd d03d febd f5a3 eb3c f1e5 7d3d
000002d0: 5bf7 e6bc 8029 503d 84ea 793d ed7f 8c3b
000002e0: d1a0 7dbc b70c ac3d 5cd7 92bd 23c1 803c
000002f0: 7c3c 88bc 2e65 20bd d954 063c f7de 20bd
00000300: 955f fa3b 9733 b5bd 8ab4 9dbd 088c b63d
00000310: c899 1cbc cf91 bcbc 5db6 dcbc 05de ab3c
00000320: fc0b 4f3c 5fd0 343d 6aab b0bb 8264 37bd
00000330: 92d9 e0bc 3749 48bc 6f5d ea3c bc2b 66bc
00000340: afb0 283d e1f7 6e3c 29c2 99bb 18b6 5dbd
00000350: 6ab9 f8bc 5867 093d 7f91 863c 5826 13bb
00000360: 155b c63d 788f 7d3d fde4 5dbd 38a9 96bc
00000370: ffab fd3e 2936 55bd 94ac 083c 475b 283d
00000380: eeec aebc 010c 82bc 0494 c23b 6f6c c13c
00000390: 2b3a 003d a839 27bc 1032 29bd 02ff 613c
000003a0: 88cb d43b 3ba0 55bd b933 c7bc 18b6 183d
000003b0: cacf d839 3055 04bd 372e 05bd fed2 273c
000003c0: 7ddb 173d 02d4 5dbb 603b 62bd 5605 8fbd
000003d0: 1345 343d 8ac7 58bc 86fd fb3c 7807 adbc
000003e0: 407b a03c 4bd5 c7bc 625a 19bd f764 86bd
000003f0: 5f54 af3d b5de 9cbc bd11 743d 4254 533d

onnx::Conv_93 f4 [64]
2.2240624 0.2267316 -0.26482782 -0.3008109 0.39973596 0.56468725 4.0142055 0.15802751
0.95127887 0.5367187 -0.5957215 0.16899607 1.3123331 -0.3876351 0.499879 -2.5383534
0.21566547 -0.7724936 -0.06972903 0.09372383 0.9093906 -0.7183268 -0.8704834 1.3864977
0.3582539 -0.15520719 -0.103948705 0.266812 0.09295207 1.3553355 -0.6091061 1.5997169
0.038184624 -0.7856695 0.36218852 -0.07889873 0.5048997 -1.195829 0.107608914 -0.14441028
0.081264794 -0.22179967 -0.21395925 -0.16554126 2.2091904 0.32182354 0.89807177 -0.11064461
-0.21267211 -0.14752588 -0.102675654 -0.174546 -0.1469577 0.101810366 0.23475766 -1.2630479
-0.6585159 -1.6506879 -0.3908221 -1.668793 -1.6015862 0.4253341 0.67586946 -0.9185879
00000000: 0a57 0e40 542c 683e 8397 87be e303 9abe
00000010: 31aa cc3e 588f 103f 5f74 8040 f7d1 213e
00000020: 0387 733f 6666 093f 3481 18bf 4e0d 2d3e
00000030: 88fa a73f 1c78 c6be 24f0 ff3e 6274 22c0
00000040: 69d7 5c3e 24c2 45bf 18ce 8ebd 48f2 bf3d
00000050: d3cd 683f 44e4 37bf 00d8 5ebf c278 b13f
00000060: 0e6d b73e a2ee 1ebe 0fe3 d4bd 959b 883e
00000070: a85d be3d a27b ad3f 61ee 1bbf 86c3 cc3f
00000080: 7b67 1c3d a321 49bf c670 b93e a895 a1bd
00000090: 1b41 013f ed10 99bf 1062 dc3d 4ae0 13be
000000a0: 286e a63d 741f 63be 2218 5bbe a683 29be
000000b0: 6063 0d40 0ec6 a43e 08e8 653f a499 e2bd
000000c0: b8c6 59be 0611 17be 9d47 d2bd 30bc 32be
000000d0: 147c 16be f481 d03d 5064 703e 8eab a1bf
000000e0: 7f94 28bf be49 d3bf d619 c8be 029b d5bf
000000f0: c700 cdbf 64c5 d93e c805 2d3f 9428 6bbf

onnx::Conv_95 f4 [64, 64, 3, 3]
-0.0077905734 0.009487307 -0.0076789632 -0.017055051 0.03245311 0.007511279 -0.0012633391 -0.021985158
-0.007945717 -0.0017511445 -0.0056981463 0.002044594 -0.0050534285 -0.002331763 -0.0021946002 0.0006387815
-0.0014756644 0.006876515 -0.0049040434 0.010178405 -0.00125666 0.015750345 0.014972142 -0.00833592
0.011417067 -0.00023668705 0.0013558394 0.0072463835 0.0086906 -0.0013654439 0.0021543817 0.005573334
0.012425526 -0.009971903 0.0002469531 0.00522627 -0.0080099935 -0.0055358782 -0.019239875 0.0047842627
-0.0027966679 -0.0094957305 -0.016946722 -0.0011649703 -0.008334314 -0.0038277714 -0.021148985 -0.0026095712
-0.015577121 -0.026635775 -0.003315662 -0.0027221148 0.0035028274 -0.012976727 -0.009895079 -0.0069640647
-0.013168149 -0.033700187 0.01945864 -0.0066798823 -0.00071679585 -0.032326218 -0.0044868398 0.0063135256
0.007339545 -0.014186128 0.011491458 0.017843533 0.0023396786 -0.0026223403 0.0038490847 0.0013289013
-0.014156862 0.00092983665 -0.010654738 -0.008763702 0.009164877 0.00018887951 -0.003917205 -0.012843618
-0.007858427 -0.005148533 0.0014870177 -0.008358508 0.0012183153 -0.006978447 -0.013048973 -0.007856288
0.005367748 0.0006955708 -0.0032225854 -0.009940106 -0.0130153075 0.002976185 -0.010309233 0.0052699195
0.0047969073 -0.015164173 -0.005291907 -0.0047944374 0.0023793178 -0.0129879555 0.012944166 -0.020373994
0.004348337 0.00571791 0.016881367 0.0041704318 -0.009446441 -0.008249157 -0.012743026 -0.0071496763
-0.016034372 -0.016925639 0.028780043 0.012626945 0.03290492 0.017051317 0.027078306 0.017746687
-0.0037259702 0.018860903 0.02629439 0.0042490563 -0.008332543 0.0037588875 0.012919527 -0.018533248
0.0068377876 0.007923766 -0.0039404472 -0.012985799 0.013343305 0.017024579 0.026182095 0.0203042
0.009390313 0.018396398 0.013969308 0.025026495 0.022681022 -0.012572266 0.0047357953 0.015732307
0.00013541032 0.0024192513 0.008541785 -0.0027335058 0.004806075 -0.0051638535 -0.0024083846 -0.001532523
-0.009783629 -0.007470233 0.035564754 0.0027901859 0.0070264703 0.023648111 -0.010507193 -0.009240582
-0.008794024 0.0003104994 0.0062673246 0.0048565133 0.0064098877 0.0047486927 0.006304922 0.022383416
-0.006155228 0.0068245907 0.009349382 0.0058767046 -0.008294927 0.001353681 -0.0022171028 -0.015149472
-0.0062086694 0.0026192951 -0.026820619 -0.0042502685 -0.0029269326 0.0028386938 0.0030896815 -0.011825144
-0.0009169525 -0.009364252 0.013524793 0.002326803 -0.0135250855 0.006871035 -0.0053729955 -0.021507453
0.0011374931 0.00397946 -0.01595387 0.018434983 -0.0154089285 -0.010106069 -0.0055981977 0.04191098
0.009136888 0.031847227 0.040981214 0.022536358 0.0009753295 0.0069580902 -0.0062386733 0.0008392511
0.002277548 0.009222449 0.00039239597 -0.012199574 0.016058303 -0.014192124 -0.008748224 0.0075813076
-0.0016568531 0.005995039 -0.014399832 -0.0035151762 0.005886378 0.003211043 0.018698262 0.0034110688
-0.009031781 0.0052255373 0.00803572 0.0010884032 -0.013860779 0.0019440643 0.0011110994 0.00040249588
0.015623776 0.0062965634 0.0004964336 -0.019655284 -0.018534625 -0.005237268 -0.028871387 -0.016943384
0.01063695 0.0011199393 -0.0037526614 -0.0021922807 -0.00644645 0.011732142 -0.0028493945 0.0018220367
0.00064839324 -0.004350407 -0.00066906103 -0.0013674429 -0.0019805506 -0.0025300733 -0.0023552482 0.007011645
00000000: 1148 ffbb a670 1b3c d09f fbbb 09b7 8bbc
00000010: 8ded 043d 2d21 f63b a096 a5ba 381a b4bc
00000020: c12e 02bc a986 e5ba 84b7 babb 98fe 053b
00000030: 3b97 a5bb 7ed0 18bb 48d3 0fbb e773 273a
00000040: 156b c1ba 6454 e13b 19b2 a0bb 53c3 263c
00000050: 83b6 a4ba de06 813c b74d 753c 6293 08bc
00000060: a60e 3b3c 322f 78b9 6cb6 b13a 1273 ed3b
00000070: 0563 0e3c b2f8 b2ba 8730 0d3b 84a0 b63b
00000080: 6f94 4b3c 3161 23bc 7c79 8139 2141 ab3b
00000090: 593c 03bc 5066 b5bb f19c 9dbc 4ec5 9c3b
000000a0: 4d48 37bb fb93 1bbc dad3 8abc ebb1 98ba
000000b0: a68c 08bc 59db 7abb a340 adbc 5705 2bbb
000000c0: 2e37 7fbc 4533 dabc 944b 59bb 8265 32bb
000000d0: b18f 653b 579c 54bc f81e 22bc cf32 e4bb
000000e0: 38bf 57bc 3509 0abd ba67 9f3c eae2 dabb
000000f0: 5be7 3bba 7f68 04bd 5706 93bb b1e1 ce3b
00000100: 9180 f03b ef6c 68bc ab46 3c3c 9a2c 923c
00000110: 4b55 193b 92db 2bbb ed40 7c3b 872e ae3a
00000120: 2ff2 67bc 48c0 733a 3691 2ebc a195 0fbc
00000130: 4828 163c f50d 4639 e65b 80bb 0a6e 52bc
00000140: a2c0 00bc 06b5 a8bb 09e8 c23a 20f2 08bc
00000150: e1af 9f3a 75ab e4bb 5ccb 55bc a9b7 00bc
00000160: efe3 af3b f756 363a 0332 53bb d4db 22bc
00000170: 283e 55bc 190c 433b 0fe8 28bc 4aaf ac3b
00000180: 602f 9d3b 2773 78bc bc67 adbb a81a 9dbb
00000190: 54ee 1b3b 6fcb 54bc c413 543c 5de7 a6bc
000001a0: 7f7c 8e3b 4e5d bb3b cb4a 8a3c 1ea8 883b
000001b0: 3fc5 1abc 7927 07bc 20c8 50bc d547 eabb
000001c0: 845a 83bc a3a7 8abc 20c4 eb3c 3fe1 4e3c
000001d0: 4fc7 063d 34af 8b3c 53d3 dd3c 8061 913c
000001e0: 682f 74bb 2e82 9a3c 5567 d73c ab3b 8b3b
000001f0: 3885 08bc ab57 763b 6cac 533c 0ad3 97bc
00000200: 850f e03b afd2 013c de1e 81bb 64c2 54bc
00000210: e19d 5a3c 2177 8b3c d57b d63c fe54 a63c
00000220: d4d9 193c 0bb4 963c 86df 643c 5d04 cd3c
00000230: 8dcd b93c e8fb 4dbc bb2e 9b3b 0ae1 803c
00000240: eefc 0d39 4d8c 1e3b d8f2 0b3c 9e24 33bb
00000250: 477c 9d3b 8b35 a9bb fdd5 1dbb f0de c8ba
00000260: 844b 20bc dbc8 f4bb 59ac 113d 8ddb 363b
00000270: 4e3e e63b afb9 c13c 5d26 2cbc cf65 17bc
00000280: cf14 10bc 86ca a239 215e cd3b 6323 9f3b
00000290: 090a d23b ec9a 9b3b 8599 ce3b 6d5d b73c
000002a0: cbb1 c9bb d1a0 df3b 262e 193c 5f91 c03b
000002b0: 72e7 07bc ff6d b13a d04c 11bb 7e35 78bc
000002c0: 1872 cbbb 7ba8 2b3b eab6 dbbc d645 8bbb
000002d0: c8d1 3fbb 6109 3a3b 417c 4a3b 40be 41bc
000002e0: a45f 70ba 856c 19bc 1897 5d3c 477d 183b
000002f0: 5298 5dbc 6b26 e13b f40f b0bb 6630 b0bc
00000300: ef17 953a 2166 823b b1b1 82bc f604 973c
00000310: bb75 7cbc ed93 25bc 1671 b7bb d9aa 2b3d
00000320: e3b2 153c 3d72 023d ebdb 273d 2b9e b83c
00000330: 41ad 7f3a b100 e43b c96d ccbb 3001 5c3a
00000340: ea42 153b c119 173c 7fba cd39 b9e0 47bc
00000350: b48c 833c 1586 68bc b654 0fbc 9e6c f83b
00000360: c42a d9ba 0872 c43b 46ed 6bbc df5e 66bb
00000370: 85e2 c03b 5d70 523b 192d 993c 3d8c 5f3b
00000380: 09fa 13bc fc3a ab3b 41a8 033c c0a8 8e3a
00000390: 5218 63bc f9cf fe3a 4fa2 913a 1506 d339
000003a0: defa 7f3c 6753 ce3b 1823 023a 1e04 a1bc
000003b0: edd5 97bc 639d abbb b083 ecbc dacc 8abc
000003c0: 9a46 2e3c edca 923a 36ef 75bb 5eac 0fbb
000003d0: be3c d3bb 2c38 403c e8bc 3abb 68d1 ee3a
000003e0: eff8 293a dc8d 8ebb ed63 2fba c53b b3ba
000003f0: 20cc 01bb 96cf 25bb 825a 1abb f1c1 e53b

onnx::Conv_96 f4 [64]
0.39956337 0.5786815 0.115347035 0.026222289 0.2778686 -0.45612538 0.38943714 0.041150153
-0.59113777 0.47116086 2.00449 0.62113845 0.38876832 0.046834264 -0.51387966 0.5348601
-0.07684221 -0.2668204 -0.20106158 1.9758729 0.04580757 0.0738768 0.08135304 -0.3375322
-2.066547 0.43791112 -0.3422312 0.008094187 0.29526627 -0.46776825 0.8897199 0.3906755
0.6593676 -2.1747642 0.43744877 0.47045195 -0.34346056 -0.5454276 -0.7380812 2.4365122
0.38516295 0.024335336 -0.22611487 -0.13980481 0.054502744 0.22252321 0.7736168 0.08352223
-2.9664254 -0.19972794 -0.34143826 -0.42586118 0.92881966 0.5736563 0.65975255 -0.2994709
-0.26188383 1.0795122 -0.52058053 0.20902105 1.6722236 0.2684334 -0.63622135 0.063090205
00000000: 9293 cc3e 7924 143f 113b ec3d 20d0 d63c
00000010: cb44 8e3e 4489 e9be 4e64 c73e 108d 283d
00000020: ce54 17bf ff3b f13e 9049 0040 ee02 1f3f
00000030: a40c c73e 49d5 3f3d 9e8d 03bf 97ec 083f
00000040: 735f 9dbd af9c 88be 16e3 4dbe 67e9 fc3f
00000050: b8a0 3b3d b84c 973d 6c9c a63d 05d1 acbe
00000060: 4e42 04c0 e335 e03e ee38 afbe 7b9d 043c
00000070: 242d 973e 527f efbe afc4 633f 9e06 c83e
00000080: 51cc 283f 562f 0bc0 49f9 df3e 14df f03e
00000090: 10da afbe 25a1 0bbf e4f2 3cbf d1ef 1b40
000000a0: 1434 c53e e65a c73c a88a 67be fe28 0fbe
000000b0: 453e 5f3d 20dd 633e c00b 463f b40d ab3d
000000c0: ead9 3dc0 7b85 4cbe ffd0 aebe 7a0a dabe
000000d0: 20c7 6d3f 24db 123f 8be5 283f 4054 99be
000000e0: a315 86be 752d 8a3f c444 05bf 9d09 563e
000000f0: 6c0b d63f 1a70 893e 67df 22bf 7035 813d

onnx::Conv_98 f4 [64, 64, 3, 3]
0.06712298 0.05691579 0.028681416 0.0113152675 0.049435567 0.042203113 0.02269919 -0.021086052
-0.0052884514 0.025981992 0.026891189 -0.04022847 0.0037379644 0.0020245865 0.01744723 0.01676086
-0.015928749 -0.034493364 0.036815964 -0.021833936 0.006873175 -0.046218146 0.013323474 0.0061126295
-0.0013025159 -0.061291594 0.0070661632 0.09077802 0.0846594 -0.06291509 0.0984259 0.0933504
0.00060538773 0.06582592 0.07233723 0.04091042 0.016767073 0.00682047 -0.0036192038 0.016549023
0.021413164 0.040056247 0.012729491 -0.0025697113 0.02082402 -0.008686904 -0.015914587 -0.020327684
0.0019484337 -0.03945739 -0.030636273 -0.026417026 -0.001095675 -4.5292763e-05 -0.0035366528 -0.0044256332
0.021898557 -0.033013515 0.027941601 0.036445122 -0.050741356 -0.049463615 0.037960622 0.010839679
0.008921395 -0.011985317 -0.0065239402 -0.016000897 0.005317446 -0.006508226 -0.02095669 -0.014510008
-0.029667282 0.022126384 0.020035421 -0.018690757 0.024159506 0.026622737 -0.00081176095 0.052495193
0.037109867 0.005720886 -0.04501597 -0.03821156 -0.03389896 -0.07041071 -0.021250676 -0.026504816
-0.04642537 -0.028413707 -0.049197916 -0.08467497 -0.099576645 -0.065518074 -0.103543796 -0.036422636
-0.008508816 -0.10258564 -0.01758703 0.029838046 -0.01782338 0.06584832 0.019845737 0.041643284
-0.035530474 0.04486585 -0.059579182 0.01417811 -0.01978316 -0.018691693 0.064733006 -0.05192471
-0.058196135 -0.013962711 0.03050846 0.01761763 0.06728896 -0.036612324 -0.008517847 0.03549431
-0.034150068 -0.0886692 -0.061924674 -0.048864964 -0.05999713 -0.036567055 -0.02663082 -0.0130513795
0.03380612 0.043931868 0.048478905 0.030710252 0.0043269396 0.05732276 0.019750874 -0.07790488
-0.13098261 0.074458785 -0.08232616 -0.07843608 -0.037219267 0.083577424 -0.051006198 0.026482556
-0.037507784 -0.023707828 0.03176908 0.020332359 0.0065969676 -0.03247964 -0.0017103162 0.023592299
0.033696607 0.042535502 0.036491342 0.08474988 -0.03100962 0.06710319 0.03286126 -0.033628404
0.06702837 0.1305123 0.0041299784 -0.0357562 -0.062178962 0.009219704 -0.05986351 -0.08307031
0.018138567 0.0011982918 -0.03659587 -0.07851902 -0.03972468 0.045280315 -0.049750715 -0.07401305
0.043221135 0.037524797 -0.12239709 0.052818157 -0.086974464 -0.03934083 0.026206654 -0.014266002
-0.007427511 -0.009644497 -0.022383064 -0.014960695 -0.0027349235 0.038503487 0.06414342 -0.038918253
0.05947911 0.0013190305 0.053580448 -0.12746546 -0.019429326 0.008582742 -0.028940398 -0.021593435
-0.09897287 0.07162928 0.086350106 0.11452442 0.062161908 0.05830216 0.04667313 0.00075565913
-0.00016378622 -0.051107068 -0.00056828966 -0.07523423 -0.06566781 0.019806232 -0.0082619665 -0.04967732
0.07631086 0.044227317 0.107645616 -0.033381354 -0.032268893 -0.07197559 0.025464023 0.011099283
0.056752756 0.0309031 -0.00041725507 -0.017660337 0.09922585 0.051550563 -0.03807248 0.023534
-0.021636605 -0.0390151 0.02719538 0.038198095 0.0344399 0.0123147005 -0.011263434 -0.0046078777
0.008313915 0.018665714 -0.012780809 -0.15316798 0.039553795 0.031589065 0.015291899 0.0027635093
0.077073224 -0.05419979 0.05671762 0.07538204 0.016185839 0.013418863 -0.008371878 -0.0059161116
00000000: c677 893d 8820 693d 4af5 ea3c ac63 393c
00000010: f37c 4a3d 2cdd 2c3d a7f3 b93c a8bc acbc
00000020: bf4a adbb 30d8 d43c e94a dc3c 9cc6 24bd
00000030: a3f8 743b edae 043b 7eed 8e3c 124e 893c
00000040: 027d 82bc ea48 0dbd 56cc 163d 15dd b2bc
00000050: 5f38 e13b 3d4f 3dbd b34a 5a3c 744c c83b
00000060: 2eb9 aaba e50c 7bbd 468b e73b d4e9 b93d
00000070: e861 ad3d a0d9 80bd 8593 c93d 7f2e bf3d
00000080: e2b2 1e3a bdcf 863d 8b25 943d af91 273d
00000090: 1a5b 893c 407e df3b 2a30 6dbb d191 873c
000000a0: a96a af3c 0512 243d 5b8f 503c 9a68 28bb
000000b0: 2397 aa3c 8453 0ebc 4f5f 82bc 3e86 a6bc
000000c0: 9662 ff3a 129e 21bd ecf8 fabc 8568 d8bc
000000d0: c19c 8fba bcf8 3db8 30c7 67bb e704 91bb
000000e0: 9a64 b33c 2e39 07bd c9e5 e43c 7b47 153d
000000f0: 2bd6 4fbd 5c9a 4abd 997c 1b3d e998 313c
00000100: 0b2b 123c 105e 44bc c7c6 d5bb 5014 83bc
00000110: f83d ae3b f542 d5bb 5dad abbc 62bb 6dbc
00000120: cd08 f3bc 6442 b53c 5321 a43c 5c1d 99bc
00000130: 28ea c53c ed17 da3c 5bcc 54ba 3305 573d
00000140: 8400 183d 4576 bb3b aa62 38bd ba83 1cbd
00000150: a3d9 0abd 7e33 90bd e615 aebc a120 d9bc
00000160: 8728 3ebd ddc3 e8bc c183 49bd 126a adbd
00000170: d7ee cbbd 572e 86bd c50e d4bd e72f 15bd
00000180: 9068 0bbc 6c18 d2bd ad12 90bc eb6e f43c
00000190: 5602 92bc 7cdb 863d 8793 a23c 2692 2a3d
000001a0: 6788 11bd 41c5 373d 4d09 74bd 4e4b 683c
000001b0: 4b10 a2bc 521f 99bc bd92 843d 01af 54bd
000001c0: 125f 6ebd dbc3 64bc e1ec f93c d952 903c
000001d0: cbce 893d cef6 15bd 718e 0bbc 7b62 113d
000001e0: f1e0 0bbd 3398 b5bd baa4 7dbd a126 48bd
000001f0: 8dbf 75bd 56c7 15bd e128 dabc 74d5 55bc
00000200: 4978 0a3d e7f1 333d d191 463d 1194 fb3c
00000210: 00c9 8d3b 45cb 6a3d 96cc a13c 988c 9fbd
00000220: 4e20 06be d97d 983d 9e9a a8bd 18a3 a0bd
00000230: 3b73 18bd a42a ab3d e0eb 50bd f2f1 d83c
00000240: c3a1 19bd eb36 c2bc 4b20 023d 0c90 a63c
00000250: 602b d83b 5f09 05bd b02c e0ba a344 c13c
00000260: 7405 0a3d b539 2e3d f277 153d 5891 ad3d
00000270: e307 febc 666d 893d 8799 063d f0bd 09bd
00000280: 2c46 893d 04a5 053e c554 873b 1875 12bd
00000290: 5eaf 7ebd 3e0e 173c 7133 75bd c420 aabd
000002a0: 5597 943c 0010 9d3a 8de5 15bd 94ce a0bd
000002b0: 59b6 22bd da77 393d 68c7 4bbd 2794 97bd
000002c0: a508 313d 9ab3 193d 53ab fabd da57 583d
000002d0: ab1f b2bd da23 21bd 56af d63c f3bb 69bc
000002e0: 7a62 f3bb f403 1ebc b05c b7bc b41d 75bc
000002f0: 673c 33bb d5b5 1d3d a05d 833d bf68 1fbd
00000300: 5ea0 733d 52e3 ac3a 2c77 5b3d 4e86 02be
00000310: 402a 9fbc a19e 0c3c 6a14 edbc b7e4 b0bc
00000320: 4ab2 cabd 5fb2 923d 53d8 b03d c78b ea3d
00000330: 7c9d 7e3d 3fce 6e3d 532c 3f3d 6d17 463a
00000340: 07be 2bb9 a555 51bd 46f9 14ba 6714 9abd
00000350: d87c 86bd ae40 a23c 335d 07bc 727a 4bbd
00000360: de48 9c3d b427 353d 4e75 dc3d e3ba 08bd
00000370: 632c 04bd f067 93bd ed99 d03c c4d9 353c
00000380: 9475 683d 7f28 fd3c 07c3 dab9 69ac 90bc
00000390: ec36 cb3d af26 533d e4f1 1bbd 60ca c03c
000003a0: 403f b1bc 4cce 1fbd d8c8 de3c 9b75 1c3d
000003b0: da10 0d3d 99c3 493c 448a 38bc aefd 96bb
000003c0: 1637 083c d7e8 983c 9966 51bc 11d8 1cbe
000003d0: 2903 223d 8963 013d e08a 7a3c fe1b 353b
000003e0: 91d8 9d3d 9900 5ebd bc50 683d e661 9a3d
000003f0: 2a98 843c cada 5b3c 342a 09bc f1db c1bb

onnx::Conv_99 f4 [64]
0.14010262 0.51860225 -0.899371 0.21185681 0.38894132 0.2629971 0.9226037 -0.31449214
0.6814792 0.8382239 0.20890713 -0.45523155 0.36431623 0.90925497 -0.14209294 -0.7210486
0.6921268 1.2705357 -0.4539916 -0.30712077 0.5061626 -0.66015965 0.06184101 0.9162958
-1.2217611 -0.5965586 -0.54727286 -0.39735663 -0.5260222 0.610428 -0.77827376 1.010252
0.18673563 -0.4977496 0.6938157 -0.2453152 0.3385102 -0.908172 0.1821611 0.75210553
-0.25521925 -2.122672 0.13452539 -0.0063192877 0.5906499 0.18709514 1.0845146 -0.60110337
-0.20447975 -0.49442798 2.5287068 -0.5666115 1.0788788 0.8590041 -0.023827314 -1.1177125
1.1042039 -0.44691187 -0.8153458 -0.9332838 -0.076464415 0.754043 0.24392027 -0.8485753
00000000: 1077 0f3e 1ec3 043f 2e3d 66bf fef0 583e
00000010: 5123 c73e 8ea7 863e c22f 6c3f 1d05 a1be
00000020: 6c75 2e3f d795 563f c0eb 553e 1c14 e9be
00000030: a887 ba3e efc4 683f d080 11be a496 38bf
00000040: 392f 313f eaa0 a23f 9671 e8be ef3e 9dbe
00000050: df93 013f 3900 29bf 004d 7d3d 5d92 6a3f
00000060: ab62 9cbf 10b8 18bf 131a 0cbf 5472 cbbe
00000070: 64a9 06bf 0245 1c3f f33c 47bf f04f 813f
00000080: a037 3f3e 09d9 febe e89d 313f e833 7bbe
00000090: 3551 ad3e f67d 68bf 7088 3a3e fd89 403f
000000a0: 19ac 82be dcd9 07c0 06c1 093e 0712 cfbb
000000b0: d534 173f de95 3f3e 60d1 8a3f e9e1 19bf
000000c0: 2463 51be aa25 fdbe 55d6 2140 740d 11bf
000000d0: b318 8a3f b1e7 5b3f 8031 c3bc 3411 8fbf
000000e0: 8e56 8d3f a2d1 e4be 81ba 50bf b0eb 6ebf
000000f0: 6099 9cbd f608 413f 3cc6 793e 3b3c 59bf

onnx::Conv_101 f4 [64, 64, 3, 3]
0.0041742227 -0.00016335984 -0.00018949281 -0.0037103565 0.015055131 0.017381497 0.0139951985 0.013006611
0.015582221 0.01488366 0.01037743 -0.002901108 0.008372438 -0.008391971 -0.0058065574 -0.00701765
0.0030459126 -0.0062630437 0.003543039 0.002574918 -0.005245226 0.0035246923 -0.014777013 0.014195795
-0.013345267 -0.0018413 -0.0050817165 -0.007835561 -0.027442092 -0.023285955 -0.010644461 -0.020687865
-0.019263303 0.0016359854 0.009528259 0.005946804 6.13617e-05 0.025332354 -0.00978232 -0.011308835
0.014945274 0.0034675275 0.0052912096 0.016061923 0.006881606 -0.004898474 0.024508385 -0.00506725
0.0056179333 0.054838154 0.04130737 0.002548887 0.017280586 0.0067220074 0.006083938 0.02497649
0.014665565 0.0065480312 0.02236492 0.016280834 0.026922747 0.020322824 0.014279395 -0.006653578
0.018663242 -0.011431364 -0.03364319 0.012404408 0.00078385184 -0.031188246 -0.013477401 -0.0084301345
0.0017310268 0.006466538 0.0034255534 -0.011708026 -0.0069494895 -0.0058406563 0.010103674 0.010241393
0.005306362 0.00885956 0.04076338 0.007031294 0.00030136397 0.05485891 0.019697133 -0.010084952
0.0026881553 -0.0068857106 0.0015875096 -0.007929866 -0.0049587823 -0.013596332 -0.01432611 -0.018187433
0.009152413 -0.008487928 -0.011025082 -0.022093473 -0.017250385 -0.010136647 -0.019893944 0.000179198
-0.0046572997 -0.02332751 -0.009419084 -0.025010081 -0.007934799 0.0072378726 0.014676676 0.0109744035
0.017710567 0.03678674 -0.011141156 0.010758884 0.0068745157 -0.0110515235 -0.0275543 -0.03526434
-0.0041019823 0.0024823032 -0.015455913 -0.010213451 -0.006183062 -0.01746175 -0.0068246243 0.0067307986
-0.007106115 0.010663424 0.03740015 0.0282374 -0.01195174 -0.0028031578 -0.015889341 -0.012494317
-0.021256853 -0.0064118207 -0.028387625 -0.008189088 -0.012363153 -0.00067975314 -0.008507787 -0.008246607
-0.011922668 -0.009718506 -0.020920092 0.0029456392 -0.00779818 -0.003118093 0.0019657435 0.0038190791
0.0025990491 0.0046860133 -0.02201316 -0.016825536 -0.0031620588 -0.03849183 -0.022842225 -0.018885618
0.005309831 -0.0115031265 0.004220555 -0.007182264 0.01344122 0.007834704 -0.0023544808 0.0054344
-0.0052383365 0.02481842 0.013327189 0.00017470072 -0.0032147467 -0.028618049 0.022999346 0.021495363
0.007237568 0.007741732 0.012997602 0.0119522 -0.022486629 0.005495823 0.0016434205 0.017716277
0.022151172 -0.03129575 -0.0119780125 0.017145693 0.016430333 -0.02493192 -0.01361204 0.0022559457
0.005052645 -0.024025688 0.0048542903 0.011560645 0.03842834 0.007479743 -0.003608108 -0.0012514578
0.02210826 -0.020798827 -0.012571429 0.0153803 -0.022603957 -0.008957197 -0.006330123 -0.012491394
-0.005636956 0.004170139 -0.01397849 0.04993567 0.028604727 0.004420151 0.016143484 -0.0075100623
-0.0058131292 -0.010372116 0.0019948322 0.016599951 -5.6949553e-05 0.01302594 -0.0053157588 0.01211702
0.0049056844 0.015311986 -0.0067758556 -0.009322431 0.013228844 -0.028250124 -0.00036101218 -0.009288089
-0.024503626 -0.021785129 -0.005116548 0.015755286 0.005368101 0.016862677 0.023804491 0.01943332
0.012646336 0.016916633 0.005630757 0.00048300036 -0.005553127 -0.005922338 0.017494708 0.03971631
0.017132334 -0.019536164 0.011564186 -0.008248882 0.015568146 0.011775965 -0.004599766 0.00606672
00000000: ebc7 883b 934b 2bb9 97b2 46b9 7429 73bb
00000010: cca9 763c a463 8e3c 1e4c 653c ae19 553c
00000020: 924c 7f3c 98da 733c 1906 2a3c 8420 3ebb
00000030: 8d2c 093c 7a7e 09bc ef44 bebb 51f4 e5bb
00000040: ef9d 473b 383a cdbb 5532 683b f5bf 283b
00000050: 25e0 abbb 86fe 663b 491b 72bc 7b95 683c
00000060: 1ba6 5abc c757 f1ba 8784 a6bb ba60 00bc
00000070: 3dce e0bc 30c2 bebc 1b66 2ebc 9979 a9bc
00000080: 13ce 9dbc 906e d63a 6a1c 1c3c 68dd c23b
00000090: 50af 8038 cc85 cf3c 0646 20bc b148 39bc
000000a0: 06dd 743c 753f 633b e261 ad3b 4b94 833c
000000b0: 187f e13b 6183 a0bb cfc5 c83c 2d0b a6bb
000000c0: a416 b83b f99d 603d eb31 293d 3a0b 273b
000000d0: 0490 8d3c 4944 dc3b c55b c73b 7f9b cc3c
000000e0: d747 703c de90 d63b a336 b73c 625f 853c
000000f0: 188d dc3c 0d7c a63c 20f4 693c 4206 dabb
00000100: a8e3 983c 9e4a 3bbc 71cd 09bd dc3b 4b3c
00000110: 687b 4d3a 7e7e ffbc 51d0 5cbc 8c1e 0abc
00000120: 9fe3 e23a 41e5 d33b 407f 603b 05d3 3fbc
00000130: 8bb8 e3bb fa62 bfbb e189 253c 84cb 273c
00000140: fee0 ad3b b027 113c 80f7 263d c566 e63b
00000150: 6300 9e39 bdb3 603d e25b a13c 5b3b 25bc
00000160: c32b 303b 87a1 e1bb fc13 d03a 45ec 01bc
00000170: 487d a2bb 26c3 5ebc 0fb8 6abc d0fd 94bc
00000180: 01f4 153c f310 0bbc 8ca2 34bc 5ffd b4bc
00000190: ae50 8dbc 2e14 26bc a0f8 a2bc 19e7 3b39
000001a0: 439c 98bb 5619 bfbc 8052 1abc f1e1 ccbc
000001b0: f600 02bc ad2b ed3b 7176 703c fccd 333c
000001c0: c015 913c b1ad 163d 6589 36bc 0846 303c
000001d0: 9e43 e13b 7311 35bc 8eb9 e1bc 5771 10bd
000001e0: ec69 86bb 23ae 223b cc3a 7dbc 5256 27bc
000001f0: 499b cabb f20b 8fbc 19a1 dfbb 088e dc3b
00000200: 6ada e8bb a4b5 2e3c e630 193d 1f52 e73c
00000210: 3bd1 43bc 2fb5 37bb 5d2a 82bc f7b4 4cbc
00000220: da22 aebc 401a d2bb 2a8d e8bc 862b 06bc
00000230: d28e 4abc 7631 32ba 3f64 0bbc c71c 07bc
00000240: 4b57 43bc 5e3a 1fbc 9d60 abbc a00b 413b
00000250: e087 ffbb eb58 4cbb b4d3 003b 8449 7a3b
00000260: cf54 2a3b 218d 993b f154 b4bc b5d5 89bc
00000270: 8b3a 4fbb 9ca9 1dbd 9e1f bbbc 03b6 9abc
00000280: 17fe ad3b 9c77 3cbc 954c 8a3b 3259 ebbb
00000290: 9038 5c3c 215d 003c a24d 1abb 0d13 b23b
000002a0: 5aa6 abbb 0050 cb3c 485a 5a3c de2f 3739
000002b0: 80ae 52bb 6670 eabc 2069 bc3c 0b17 b03c
000002c0: 1f29 ed3b 5bae fd3b e5f3 543c 29d3 433c
000002d0: e135 b8bc 4e16 b43b 0b68 d73a ba21 913c
000002e0: 6076 b53c f92f 00bd 6d3f 44bc 2075 8c3c
000002f0: e898 863c 073e ccbc 0905 5fbc 7dd8 133b
00000300: a990 a53b 85d1 c4bc bd10 9f3b dc68 3d3c
00000310: 0967 1d3d a218 f53b 0276 6cbb f507 a4ba
00000320: 621c b53c 4d62 aabc 65f8 4dbc a7fd 7b3c
00000330: ef2b b9bc 35c1 12bc ec6c cfbb b4a8 4cbc
00000340: 37b6 b8bb a9a5 883b 0906 65bc 5889 4c3d
00000350: 7654 ea3c ead6 903b 573f 843c f816 f6bb
00000360: 107c bebb cfef 29bc bbbb 023b 9ffc 873c
00000370: 1edd 6eb8 c16a 553c d12f aebb 7786 463c
00000380: ddbf a03b 20df 7a3c ff07 debb 1cbd 18bc
00000390: cbbd 583c ce6c e7bc 3c46 bdb9 122d 18bc
000003a0: d4bb c8bc ba76 b2bc b7a8 a7bb 3b11 813c
000003b0: e5e6 af3b 9923 8a3c a301 c33c a032 9f3c
000003c0: 9432 4f3c c094 8a3c 3782 b83b 363b fd39
000003d0: 01f7 b5bb 2c10 c2bb 1051 8f3c 92ad 223d
000003e0: 1c59 8c3c 4e0a a0bc b677 3d3c 5226 07bc
000003f0: 8911 7f3c faef 403c a2b9 96bb 56cb c63b

onnx::Conv_102 f4 [64]
-0.83245087 0.3672607 -1.8770525 0.37586927 0.33489987 -0.29628515 -0.13645726 1.5372977
-0.35162073 -0.26993197 -0.34824896 -0.097116455 0.13627042 0.14302671 0.17591742 -0.093475655
-0.040958267 -0.036618534 0.024569958 0.55672985 -0.6049801 0.4738556 -0.08615985 -1.256768
-0.6708102 0.22585139 -1.0768284 1.1672208 -0.65912 -1.1716232 2.1728272 1.2453669
0.22411904 0.120972246 -0.21163782 0.43028724 -0.10744815 0.01652217 -1.118717 0.64465714
0.84149826 -0.42920476 -0.023546431 0.0060953368 0.23915352 1.2987969 -1.2675592 -0.11711898
-0.75679696 0.32190937 0.48669797 0.33939892 -0.5748962 0.5571208 0.2621945 -0.37655056
0.43009043 0.44759464 0.2557075 0.15067358 -0.8205654 -1.2174867 -0.5860814 0.44941255
00000000: 801b 55bf 9809 bc3e 4243 f0bf f071 c03e
00000010: ff77 ab3e b0b2 97be 74bb 0bbe 2cc6 c43f
00000020: a207 b4be 8634 8abe b04d b2be fee4 c6bd
00000030: 798a 0b3e 9875 123e b223 343e 2a70 bfbd
00000040: dbc3 27bd 51fd 15bd f046 c93c d985 0e3f
00000050: fadf 1abf 349d f23e 9374 b0bd c6dd a0bf
00000060: 38ba 2bbf 9645 673e 83d5 89bf 7e67 953f
00000070: 17bc 28bf c0f7 95bf 9a0f 0b40 2f68 9f3f
00000080: 767f 653e 4cc0 f73d 96b7 58be 9c4e dc3e
00000090: c70d dcbd 8059 873c 1e32 8fbf 4008 253f
000000a0: 6e6c 573f bac0 dbbe 72e4 c0bc 64bb c73b
000000b0: a9e4 743e fa3e a63f 613f a2bf 13dc efbd
000000c0: 72bd 41bf 4ed1 a43e 7a30 f93e b2c5 ad3e
000000d0: 662c 13bf 789f 0e3f 5c3e 863e 3ccb c0be
000000e0: d034 dc3e 202b e53e 18ec 823e 2d4a 1a3e
000000f0: 9310 52bf 9bd6 9bbf 6e09 16bf 6719 e63e
