best_models/resnet3-64/policy_head.onnx (onnx, 11796 bytes, 4 tensors)

layers.4.weight f4 [36, 72]
-1.4272711 0.17193823 0.4990837 0.33184046 0.32186148 -0.4130879 -1.251013 0.25053138
0.18607068 0.17260544 0.046186205 -0.117774665 -0.090027705 -0.10945578 0.11050149 0.1976857
0.04109809 -0.1361547 -0.023646751 -0.027952805 0.17776194 0.23815867 0.05921737 -0.15174869
0.2537987 0.12371184 0.010608512 0.11286874 -0.05159175 0.0029046382 -0.01658971 0.14887796
0.07437428 0.009381415 0.021310175 -0.022776883 -1.6143949 0.367855 -0.07709337 -0.08237816
-0.21978585 -0.07434169 -1.299784 -0.8607787 -0.48525053 -0.29034087 -0.0038637 -0.19699867
-0.06783122 0.04258058 0.10413904 0.048637867 0.07841053 0.26846668 0.07993055 0.02909755
0.1434338 0.120658375 0.05356477 0.20627162 -0.008215044 -0.24465553 0.017906599 0.118692175
0.15255173 0.21329421 -0.04806161 0.15197109 0.020002753 0.05302891 0.14886233 0.049884476
-0.93841374 -1.552873 0.27331394 0.123488985 0.11792333 0.16481484 -0.8043559 -0.3402521
0.43612787 0.18621658 0.21601677 0.04426159 -0.22233938 0.060221147 0.09253364 0.07693817
0.18705994 0.13693383 0.14013231 0.04086229 0.13377236 0.12498988 0.10808113 -0.070219174
0.10993347 0.17757931 0.07366116 0.21101467 -0.005605976 -0.09437809 0.23498054 0.16679437
0.07152833 0.06659292 0.09649952 0.18507501 0.37469512 -1.0750084 0.6190697 0.09948706
0.07887626 -0.1315791 -0.09698451 -0.91038334 -0.70160645 -0.374011 0.08612417 -0.03687303
0.16453496 0.019889355 0.15175185 -0.060114793 -0.010841615 0.0012853837 0.047636032 -0.09705094
-0.075530596 -0.13846736 -0.048511855 0.23585138 -0.17065674 -0.11856788 0.024044653 0.020420125
0.14681463 0.083590664 0.14667198 -0.038296882 0.0018095038 0.07804621 0.119144686 0.17987609
-0.07805406 -0.6382246 -1.3571494 0.24610735 0.10284491 0.26024482 -0.1768534 -0.4540902
-0.55600363 0.3653525 0.1630121 0.18959737 0.07998341 -0.05502099 -0.060946092 -0.073179536
0.013595607 -0.025832357 0.061433494 0.038394958 0.11002352 0.18095909 0.11271414 -0.16621038
0.11171553 0.24809627 -0.06521508 0.09862386 -0.05752247 -0.050126757 0.23571704 0.114239715
0.12186756 0.11415734 0.10513284 0.15364195 -0.07116294 0.61925524 -0.983186 0.4161123
0.024938187 -0.10731892 0.059657108 0.006019931 -0.8926794 -0.6694083 -0.09346704 -0.05779217
0.04818577 0.239039 0.06042893 0.17947124 0.06528338 0.070191674 0.0828918 0.03254116
0.12027417 -0.0086922515 0.04831345 0.0915955 -0.12257786 -0.015793568 -0.034804583 0.0059588877
0.1522557 0.17505844 0.24806562 0.013643843 -0.007230412 0.12481917 0.19152056 0.17247033
0.06480402 0.0043139495 -0.5294308 -1.3388048 0.15480645 0.6307435 -0.011382028 0.048136048
-0.6205592 -0.41846943 0.20742421 0.1157174 0.16965869 0.009193051 -0.040595844 0.015529189
0.017956993 -0.29447234 0.1307328 0.078259654 0.019019734 0.19317481 0.04954117 -0.09232659
0.14284752 0.20923838 0.0025185621 0.11168904 -0.067947716 0.09637954 0.24399619 0.18467824
0.13214262 0.029809989 0.1823524 0.28814057 -0.073412515 0.16846469 0.38345167 -0.9991167
00000000: d2b0 b6bf 9310 303e e687 ff3e fee6 a93e
00000010: 07cb a43e 4280 d3be 3221 a0bf a645 803e
00000020: 5089 3e3e 7bbf 303e bf2d 3d3d d833 f1bd
00000030: 7260 b8bd 5a2a e0bd 9b4e e23d 1f6e 4a3e
00000040: 7956 283d 236c 0bbe d5b6 c1bc 48fd e4bc
00000050: 3a07 363e dedf 733e ea8d 723d 0264 1bbe
00000060: e7f1 813e a25c fd3d 53cf 2d3c ba27 e73d
00000070: df51 53bd be5b 3e3b 25e7 87bc 7773 183e
00000080: 8b51 983d 82b4 193c ad92 ae3c 9696 babc
00000090: 7ea4 cebf 7e57 bc3e 21e3 9dbd e1b5 a8bd
000000a0: 8b0f 61be 7540 98bd 525f a6bf fe5b 5cbf
000000b0: c272 f8be 8fa7 94be 2136 7dbb 05ba 49be
000000c0: 18eb 8abd f968 2e3d d946 d53d 8038 473d
000000d0: b395 a03d 7774 893e a1b2 a33d fc5d ee3c
000000e0: 4fe0 123e bd1b f73d bb66 5b3d de38 533e
000000f0: 6498 06bc fb86 7abe dcb0 923c e214 f33d
00000100: 8536 1c3e cc69 5a3e 40dc 44bd 4f9e 1b3e
00000110: d0dc a33c d834 593d 5e6f 183e aa53 4c3d
00000120: e23b 70bf 8bc4 c6bf ceef 8b3e cbe7 fc3d
00000130: c981 f13d 39c5 283e 45ea 4dbf 8635 aebe
00000140: 274c df3e 8faf 3e3e 8033 5d3e a44b 353d
00000150: efac 63be 73aa 763d 4782 bd3d c291 9d3d
00000160: a48c 3f3e 6238 0c3e d87e 0f3e 375f 273d
00000170: 9ffb 083e b2fa ff3d a459 dd3d 12cf 8fbd
00000180: cd24 e13d 5ad7 353e aadb 963d 3b14 583e
00000190: 56b2 b7bb 4d49 c1bd bd9e 703e 25cc 2a3e
000001a0: 727d 923d de61 883d 8aa1 c53d 4e84 3d3e
000001b0: 0ad8 bf3e e099 89bf 5a7b 1e3f dfbf cb3d
000001c0: e089 a13d acbc 06be d19f c6bd e20e 69bf
000001d0: 7b9c 33bf 5f7e bfbe de61 b03d 2d08 17bd
000001e0: da7b 283e 00ef a23c d664 1b3e ee3a 76bd
000001f0: 07a1 31bc 527a a83a 001e 433d a5c2 c6bd
00000200: c9af 9abd 63ca 0dbe 5eb4 46bd 0683 713e
00000210: a4c0 2ebe b7d3 f2bd 4bf9 c43c 1b48 a73c
00000220: 9356 163e 9531 ab3d 2e31 163e 31dd 1cbd
00000230: df2c ed3a b1d6 9f3d 2102 f43d 7031 383e
00000240: cfda 9fbd b062 23bf 12b7 adbf 9103 7c3e
00000250: 5aa0 d23d cf3e 853e 0f19 35be 837e e8be
00000260: 4156 0ebf 7c0f bb3e a5ec 263e d025 423e
00000270: 58ce a33d b15d 61bd 9ca2 79bd 27df 95bd
00000280: 1cc0 5e3c 619e d3bc b0a1 7b3d 0844 1d3d
00000290: 0354 e13d 574d 393e acd6 e63d 0e33 2abe
000002a0: 1dcb e43d f30c 7e3e 7c8f 85bd 4efb c93d
000002b0: ae9c 6bbd b751 4dbd cf5f 713e 83f6 e93d
000002c0: b395 f93d 53cb e93d e34f d73d 5154 1d3e
000002d0: e0bd 91bd 8387 1e3f 14b2 7bbf ac0c d53e
000002e0: 2b4b cc3c 06ca dbbd 035b 743d d742 c53b
000002f0: a386 64bf 585e 2bbf a66b bfbd 7cb7 6cbd
00000300: 715e 453d a4c6 743e 5384 773d 4fc7 373e
00000310: 4bb3 853d a7c0 8f3d 2dc3 a93d e149 053d
00000320: 4e52 f63d f269 0ebc 53e4 453d 6c96 bb3d
00000330: 1a0a fbbd 8361 81bc 408f 0ebd c642 c33b
00000340: ebe8 1b3e 8542 333e ea04 7e3e 6d8a 5f3c
00000350: 18ed ecbb 31a1 ff3d f71d 443e 109c 303e
00000360: f8b7 843d 085c 8d3b c788 07bf f55d abbf
00000370: 9585 1e3e 6878 213f b07b 3abc 4e2a 453d
00000380: f8dc 1ebf a041 d6be 0367 543e 3ffd ec3d
00000390: 02bb 2d3e 739e 163c d447 26bd 246e 7e3c
000003a0: 8b1a 933c 14c5 96be d2de 053e 9946 a03d
000003b0: 46cf 9b3c 9ecf 453e afeb 4a3d b915 bdbd
000003c0: 9f46 123e 9642 563e 760e 253b 39bd e43d
000003d0: 2c28 8bbd a362 c53d 23da 793e 4b1c 3d3e
000003e0: 6550 073e 1434 f43c 96ba 3a3e 2987 933e
000003f0: 4d59 96bd 0282 2c3e c753 c43e 1dc6 7fbf

layers.4.bias f4 [36]
0.52538943 -0.057987418 0.2591942 0.13229078 -0.23996498 0.37195903 -0.2628179 -0.006549914
-0.12758556 -0.19166937 0.06852402 -0.032183215 0.09844366 -0.11422438 -0.19552594 0.031318903
-0.059481893 0.20326914 0.13154821 -0.13342951 -0.21497753 -0.11325361 -0.0037342252 0.12865947
-0.14370017 -0.09638307 -0.3528233 -0.11879239 0.046057697 -0.26229164 0.83177084 -0.3686833
0.0009892242 -0.09750124 -0.5918839 0.82854867
00000000: ec7f 063f 3784 6dbd 1ab5 843e 3c77 073e
00000010: 61b9 75be 6a71 be3e 1190 86be a9a0 d6bb
00000020: caa5 02be fa44 44be 5256 8c3d 8cd2 03bd
00000030: d49c c93d 79ee e9bd f437 48be 4048 003d
00000040: 49a3 73bd c925 503e 93b4 063e bfa1 08be
00000050: 1223 5cbe 82f1 e7bd e7b9 74bb 4fbf 033e
00000060: 2326 13be 7d64 c5bd 41a5 b4be 6d49 f3bd
00000070: ffa6 3c3d 174b 86be efee 543f 0fc4 bcbe
00000080: dba8 813a bbae c7bd b485 17bf c41b 543f

onnx::Conv_15 f4 [2, 64, 1, 1]
-0.67502195 -0.23916186 -0.18539932 0.4330054 1.2443409 0.78206253 -0.13239759 -0.27272817
0.82098764 0.8766218 0.40288463 -0.0032378961 0.454919 1.305157 -0.6600152 -0.116448015
0.09153897 -0.38103423 -1.2410966 0.038618565 0.26996174 0.43123758 -0.27537203 0.5201489
0.37158138 0.29034165 0.8972151 -0.50499034 -1.0461587 -1.05295 1.3889163 1.1638423
0.16368797 0.19934423 -0.4781664 -0.1654497 0.020380532 -0.6533157 1.5662338 2.2388325
1.0942944 -0.585024 -0.18123822 -0.10024484 0.83869153 0.2788314 0.005905051 0.19522466
0.4458457 -1.1554748 0.39503974 0.08794133 0.47344515 -0.18723787 -0.3350038 1.3408967
0.17243733 -1.0763541 -0.75303143 -0.62916756 -0.8615452 0.23035914 0.79342985 -0.107349895
-0.66087407 -0.18780036 0.5390954 0.040077288 -0.70707244 -0.19314872 -0.58082247 0.095931575
0.3669382 0.68504566 0.055990014 -0.11954524 1.0229605 -1.0100172 -1.367932 -0.6707986
-0.100817874 0.027585277 -0.43294013 -0.32157722 -0.18639988 0.5335486 -0.1581858 -0.6690597
-0.80802953 0.5320649 0.113805436 -0.12235532 -1.2479361 -1.4757261 -0.81045413 1.127838
-0.15150996 -0.24195927 -0.5266743 0.15902318 -0.24884844 -0.82111853 0.77829087 0.9953984
1.6028564 0.23950331 0.018482458 0.022481827 0.5457206 -0.14903392 -0.050367523 -0.37405077
-0.035267092 0.48897263 0.02578362 0.649992 0.6719249 -0.11084379 -0.03117438 -0.7238013
-0.42965356 1.0710925 -0.3655659 -0.51795226 -0.2790007 -0.660686 0.1794132 -0.3076772
00000000: 3dce 2cbf d9e6 74be 52d9 3dbe e2b2 dd3e
00000010: 9046 9f3f 4035 483f 3c93 07be 07a3 8bbe
00000020: 3f2c 523f 496a 603f e546 ce3e e232 54bb
00000030: 25eb e83e 620f a73f c2f6 28bf 4c7c eebd
00000040: c978 bb3d eb16 c3be 41dc 9ebf 802e 1e3d
00000050: 6d38 8a3e 2ccb dc3e 90fd 8cbe 7a28 053f
00000060: ea3f be3e a9a7 943e e4af 653f 0c47 01bf
00000070: 87e8 85bf 11c7 86bf 02c8 b13f c9f8 943f
00000080: d29d 273e e520 4c3e 3ad2 f4be a56b 29be
00000090: 13f5 a63c b33f 27bf 597a c83f 0849 0f40
000000a0: d711 8c3f 22c4 15bf 8396 39be 2b4d cdbd
000000b0: 7db4 563f fdc2 8e3e 287f c13b f9e8 473e
000000c0: e345 e43e 99e6 93bf a642 ca3e 961a b43d
000000d0: 6767 f23e 49bb 3fbe 9e85 abbe 81a2 ab3f
000000e0: 6993 303e f9c5 89bf abc6 40bf 2011 21bf
000000f0: 3a8e 5cbf 44e3 6b3e 381e 4b3f 43da dbbd
00000100: 0b2f 29bf bd4e 40be 2802 0a3f 1528 243d
00000110: b302 35bf c7c8 45be c8b0 14bf c677 c43d
00000120: 53df bb3e 275f 2f3f c955 653d 23d4 f4bd
00000130: 5ff0 823f 3e48 81bf 6518 afbf 75b9 2bbf
00000140: 9a79 cebd 85fa e13c 54aa ddbe c5a5 a4be
00000150: 9cdf 3ebe a496 083f 75fb 21be 7f47 2bbf
00000160: 06db 4ebf 6835 083f d312 e93d 6d95 fabd
00000170: 5fbc 9fbf 98e4 bcbf ec79 4fbf ff5c 903f
00000180: 6d25 1bbe 2cc4 77be 20d4 06bf f9d6 223e
00000190: 20d2 7ebe d334 52bf 123e 473f 6ed2 7e3f
000001a0: 662a cd3f 5b40 753e 8668 973c cf2b b83c
000001b0: 58b4 0b3f 599c 18be 2d4e 4ebd 9583 bfbe
000001c0: 3a74 10bd 9f5a fa3e 2c38 d33c e065 263f
000001d0: 4503 2c3f 1202 e3bd 6a61 ffbc 0b4b 39bf
000001e0: 8dfb dbbe 8f19 893f 742b bbbe 8598 04bf
000001f0: 2ed9 8ebe b822 29bf 18b8 373e de87 9dbe

onnx::Conv_16 f4 [2]
-10.06126 -0.4653629
00000000: ecfa 20c1 0c44 eebe
