best_models/resnet3-64/value_head.onnx (onnx, 11206 bytes, 4 tensors)

layers.4.weight f4 [64, 36]
00000000: 0f90 8f3d 905a 19bf eb4a b3be e250 4fbe
00000010: 6699 84be f8fa 7abe 0a7d 66bd a766 34bf
00000020: 18d6 8fbd a495 ba3d 7478 09be f6a4 4c3d
00000030: 29a2 1f3e 3776 71be 0831 7d3e 4ff4 e7ba
00000040: 690e cebd a731 ffbd 837f 253e 1cdb 83bd
00000050: 0045 8dbd 173f f83c cb4d 853d cb66 873d
00000060: 2a17 743e 3124 4fbe 3e18 f8be 6474 293e
00000070: a559 99be 5fe5 023e 23ff 96be 4f2c 443e
00000080: d01a 27bf db9b adc0 1dcf 4bbe 6662 de3e
00000090: cc1d 37be 5be8 86bb 2ca4 103c 7940 27be
000000a0: 5d34 10bf b3ee c8be 992c d03b 2ff3 16bd
000000b0: 1c12 3cbe fc4e 72bf 1fab 2abf 9f44 07bf
000000c0: d5d8 af3c 92ca 90be 48f5 67bf 445b adbf
000000d0: e4bf 52bf 4b50 2c3b 6595 f33d a7ae ed3d
000000e0: 1549 ecbe 076f 32bf 815e 57bf 8a3f c0be
000000f0: 368c 423e dda0 7c3e 7044 90bd 5a52 debd
00000100: 97b1 9fbd 6b17 babd 05ee 90bd 7727 c33e
00000110: 11eb 873e 84f5 2b3e 0ac0 09bb 57c6 92be
00000120: ca33 cbbe 1fd3 7f3d 9962 d43d 2d7a 83be
00000130: 68a4 06be 8547 17bd 6d9f 983e b2da aa3e
00000140: 9137 e03e 2724 c93d 7a67 f23d afd5 81bd
00000150: f62b fa3d 1b68 a03e a28e 373e 5d49 82bd
00000160: ed1a 07be 3c2c 5fbc 7294 dd3d c3cb d03e
00000170: 5f05 2b3e 3f99 8fbd bcbf 0cbe fd66 9bbd
00000180: ce46 0d3e 688b 673c 35f0 39bd 53dc b7be
00000190: 016a 3abf abeb fabe 62b8 863d b0fb ccba
000001a0: 70e1 08be 0e7e a4be a0f8 22bf 75a5 59bf
000001b0: 88f7 e4be 3b38 8d3d a028 393e 2cbf 92bd
000001c0: 35aa 58be 52e0 70be 2100 983e eb52 e93e
000001d0: d91b 073f 6bc4 2e3e f56c 7c3e caa4 e8bb
000001e0: 4c00 ae3d 636e 3f3e 9735 393d ba4f c53c
000001f0: b10f 653d a7de 8cbc 850f cfbe e4f5 643e
00000200: d906 d93d 964f bf3c 7057 4c3e 2d5c 8ebd
00000210: eb89 0abf d5e5 dabe 7b48 3bbe bade 9bbd
00000220: 8d52 2a3d bc58 83bd 5fb9 83bf 605f 1bbf
00000230: cb22 5cbd e6a3 603d 6040 943e ba6f 083a
00000240: cbca cabd 894e 95be e080 71be 6c8f 9ebe
00000250: ece0 e23d a8fd 043d 12b9 29bd a80e 723d
00000260: b1e7 5e3d 9d02 0f3d 21fb d7bd 85d9 98bd
00000270: d390 d2be 8e97 c23c 9730 903c bb2e a3bd
00000280: 64c4 183e aeca 86be f4ce a2ba bd4b c13d
00000290: b569 e6bc dcf2 30bb b14d 0bc0 0a53 64bd
000002a0: af2d 9abd 7a0b 263d 7787 eebc 5c77 15be
000002b0: 5060 5f3e 946f e0bf 2dca 08bd 6abd 493d
000002c0: 9b41 57bd bc28 02be 598a edb9 9841 743e
000002d0: 6f28 173d da78 6dba 5554 083e 44cf 143d
000002e0: dec1 e8bd 7c91 aa3e 1432 adbd 4d1e cabe
000002f0: 2abe c8be c75c d2be 958c 9bbe 45c7 3dbe
00000300: 9f94 cfbd 46b6 25bf f43a 03bf e401 f4be
00000310: e582 63be cc6a eabd 539f 52be 3358 f0be
00000320: c8bd 2dbf d388 16bf 37f5 cfbe d9cd 20be
00000330: b1ad 22be 7de3 97be 7ce1 bfbe 69ff ccbe
00000340: 0ca2 90be a520 6dbe b7a7 02be d919 85be
00000350: 5fa7 59be a43c 7fbe f9b2 10be d0f5 e9bc
00000360: 8e5f 8e3e f90e 373c f9d4 503d 2827 303c
00000370: 6034 82bd 2f67 1b3e af38 a33d 1e46 353c
00000380: e4d6 3f3c 5577 8fbd 458a c7bd 6f3b 263d
00000390: a343 debd adf6 10bf 9e63 c3be 1fbc 893d
000003a0: 3f41 44be b711 9fbe 6d3d e13d 0d5a fdbd
000003b0: 6b32 1dbf 6123 3cbe be7c 82bf e2ba fcbd
000003c0: aa8a 093e 6d69 46bd f028 46bf 9e94 37bf
000003d0: 4014 8ebf a561 403c 17a8 d63c 1e49 b7bd
000003e0: ba5d cbbe 3ba4 84bf 6b2a 1dbf a8af 05c0
000003f0: 4e2b 5d3e 5079 febc bc59 d1be fbea 0bc0
0.07009899 -0.5990381 -0.35018095 -0.20245698 -0.25898284 -0.245098 -0.05627159 -0.70469135
-0.07023257 0.09110573 -0.13424855 0.049962007 0.15589203 -0.23580252 0.24725735 -0.0017696711
-0.10061342 -0.12460642 0.16161923 -0.06438276 -0.06897926 0.030303521 0.065089785 0.06611403
0.23836961 -0.2022865 -0.48455995 0.16548306 -0.29951206 0.1278281 -0.2949153 0.19157527
-0.6527529 -5.4252753 -0.19903226 0.43434447 -0.1788246 -0.0041170544 0.008828204 -0.16333188
-0.563299 -0.39244613 0.0063529727 -0.03685301 -0.18366283 -0.9465177 -0.6666736 -0.5283908
0.021465698 -0.2827955 -0.90608644 -1.3543477 -0.8232405 0.0026292976 0.11893729 0.11605578
-0.46149507 -0.69700664 -0.84128577 -0.37548476 0.18998799 0.2467074 -0.070443034 -0.10855551
-0.077975444 -0.09086498 -0.070766486 0.38116047 0.2654653 0.16792876 -0.0021019005 -0.28666946
-0.3968795 0.0624572 0.103703685 -0.2567915 -0.13148654 -0.03693344 0.29809132 0.33369976
0.43792394 0.09821349 0.11836143 -0.06339585 0.12215416 0.31329426 0.17925504 -0.06361649
-0.13193865 -0.013621386 0.10819329 0.40780458 0.16701268 -0.07011651 -0.13745016 -0.07588003
0.13796541 0.014132358 -0.045395095 -0.35910282 -0.72818 -0.49007925 0.06578137 -0.0015638974
-0.13367248 -0.32127422 -0.6366062 -0.8501809 -0.447201 0.06895491 0.18081903 -0.071653694
-0.21158679 -0.23523071 0.29687598 0.45571074 0.5277687 0.17067115 0.24650939 -0.0070997225
0.084961504 0.18694453 0.045217123 0.024085868 0.055923168 -0.017196013 -0.40441528 0.22359425
0.10597009 0.02335338 0.1995523 -0.06951175 -0.54116696 -0.42753473 -0.18289368 -0.07610841
0.041582633 -0.06413409 -1.0290946 -0.60692406 -0.05374412 0.054843806 0.28955364 0.0005204637
-0.09901961 -0.2916148 -0.23584318 -0.30968797 0.11078057 0.032468468 -0.041436262 0.05909601
0.054420177 0.0349146 -0.10545946 -0.074633636 -0.41126117 0.023753908 0.017601294 -0.079678975
0.14918667 -0.26326507 -0.0012421296 0.09438274 -0.028126577 -0.0027000224 -2.176617 -0.055743255
-0.07528245 0.04053829 -0.029117329 -0.14596313 0.21814084 -1.7534051 -0.033395935 0.049252905
-0.0525528 -0.12710851 -0.0004530724 0.23853147 0.036903795 -0.0009058841 0.1331342 0.036330476
-0.11365102 0.3331412 -0.08456817 -0.39476243 -0.39207584 -0.41086408 -0.30380693 -0.18533047
-0.10135769 -0.6473125 -0.5126183 -0.47657692 -0.22217901 -0.11446151 -0.2056859 -0.4694229
-0.6786771 -0.5880253 -0.40616772 -0.15703525 -0.1588657 -0.29665747 -0.37476718 -0.40038612
-0.28248632 -0.23156984 -0.1275929 -0.25996283 -0.21255253 -0.24925476 -0.14130773 -0.028559595
0.27807277 0.011173003 0.050984357 0.010751523 -0.06357646 0.1517608 0.07969796 0.0110640805
0.011708949 -0.07005183 -0.0974317 0.040584024 -0.108527444 -0.566264 -0.3816194 0.067253344
-0.19165514 -0.31068203 0.10998044 -0.123706914 -0.61405057 -0.18372871 -1.0194318 -0.123403326
0.13431802 -0.048440386 -0.77406216 -0.71711147 -1.109993 0.01174203 0.026203198 -0.08949493
-0.39719945 -1.0362619 -0.6139285 -2.0888462 0.2159855 -0.031063706 -0.40888774 -2.186217

layers.4.bias f4 [64]
00000000: 25ef 25bf 9921 05bf 7008 1bbd fbf8 053e
00000010: b12e 2ebe 5713 b63e 5ff3 1e3e 8b14 473d
00000020: 4b6e 453e 7b3e 4f3e 0e68 2cbe 776c 223d
00000030: e67c 233f e78b 283d 270f 753e dc92 07bf
00000040: 3bdd 63bf 0ef9 e4be 1fe5 a2be 15a6 06be
00000050: 21a8 8a3e 6de5 0d3e 855a 60be 691c 0dbf
00000060: 4d0a 8f3e 8219 243e 73c9 d33a 759c 883e
00000070: 199d 78be 9c4a 1cbf 8767 493e 4fe5 a73d
00000080: fe77 293e 8a1d 16bd 2246 7a3e d18b b83d
00000090: bc38 9b3e 931b acbe 86e5 273e 1a88 c5be
000000a0: 4973 f5bd d73c 663e b0b8 80bf 121a 483e
000000b0: f2aa 5ebd 5ae8 3bbe d25f f9be b641 83bf
000000c0: dd86 24bd cd1e 95be ac6b b9be 7802 593e
000000d0: 1298 91be b71e 1d3f 6472 41bf 9b57 27bf
000000e0: 1b48 36bc 2b04 3f3e 558e 773e e723 4d3d
000000f0: cd47 46be 28c4 7f3e 5ade b33d 73ec 9c3e
-0.6481803 -0.5200439 -0.037849844 0.1308326 -0.17009999 0.3556163 0.15522526 0.048603576
0.19280355 0.20238678 -0.16836569 0.03965422 0.63862455 0.041149046 0.23931561 -0.52958465
-0.89009446 -0.44721264 -0.3181543 -0.13149293 0.27081397 0.1385705 -0.2190953 -0.55121475
0.27937546 0.16025355 0.0016158059 0.26681867 -0.24278678 -0.61051345 0.19668399 0.08198034
0.1654968 -0.036649264 0.24440816 0.09011043 0.30316722 -0.33614787 0.1639615 -0.385804
-0.119848795 0.22484146 -1.0056362 0.19541195 -0.054362245 -0.18350354 -0.48705918 -1.0254428
-0.04016768 -0.29125062 -0.3621496 0.21192348 -0.28436333 0.6137499 -0.7556517 -0.6536805
-0.01112559 0.18653934 0.24175389 0.050083067 -0.19363327 0.24977171 0.087826446 0.30649146

layers.6.weight f4 [1, 64]
00000000: 67d6 a8bd ec4b 0f3e 7b1c cebd 4b13 eebd
00000010: fd45 c8bd 243c f7be 4051 8d3e 98d3 8d3e
00000020: c95b 97be 66a6 d0be db2e 46be ee15 90be
00000030: 8076 913f 7f10 abbe bd8c c2be f146 7ebe
00000040: 546b cdbd a9ba 273e a443 4c3e 270b 673e
00000050: 5556 bebe 9669 b2bd 917b 3ebe de37 d4bd
00000060: 6a4a efbe 95a5 9dbe 5647 f13e 8b78 cdbe
00000070: 1dbc 35be d88d 7cbd 0e80 f73e 9fc7 743e
00000080: 963f 9ebe efbd 37be dbbb aabe cdd2 0dbe
00000090: 3246 dfbe b0cf fc3d aa54 98be 50e3 d7bd
000000a0: 4e0f 443e e08f b5be d2b4 533e 3e79 1a3e
000000b0: df44 72be d8cb 8f3e 518e 5b3e a230 b8bd
000000c0: e472 c4bd 1bef 45be 5258 73be 8bc7 a0be
000000d0: 9db8 03be 8fe2 0c3e 02c3 183e fa5f 1bbe
000000e0: 670c 3dbe a2ac 9abe e58b e93e b359 223e
000000f0: 1a25 5c3f fb2f bfbe 99c8 3b3e 16a0 2c3f
-0.08244019 0.13993806 -0.10064026 -0.116247736 -0.09778974 -0.4828807 0.2760105 0.27700496
-0.29562214 -0.40751952 -0.19353811 -0.2814173 1.1364288 -0.33411023 -0.37998 -0.2483175
-0.10030237 0.16379799 0.19947678 0.22562848 -0.3717524 -0.08711545 -0.18601824 -0.10362218
-0.4673646 -0.30790392 0.47124738 -0.4013103 -0.17747541 -0.06165871 0.48339885 0.23904274
-0.30907887 -0.17943548 -0.33346447 -0.13849945 -0.43608242 0.12344301 -0.29752094 -0.10541403
0.19146463 -0.3546133 0.20674446 0.15085313 -0.23659085 0.28085208 0.21441008 -0.08993651
-0.09592226 -0.19329493 -0.2376416 -0.3140224 -0.12863393 0.137583 0.1491814 -0.15173331
-0.18461762 -0.30209833 0.45614544 0.1585453 0.8599411 -0.37341294 0.1833824 0.6743177

onnx::Conv_20 f4 [1, 64, 1, 1]
00000000: 6516 13bf f3ba 88bf 68a0 b03f f8fd 3c3e
00000010: 9090 79be 85e4 153f f410 2b3e c306 1bbf
00000020: 33b5 833e bf95 9fbc f766 c0be 9362 29bf
00000030: a5c4 17c0 5b68 52be fec1 12bf ee7d 4ebf
00000040: ec0d 0441 2999 22c0 dacc af3f 30e1 13bf
00000050: 84bd cabe 55d4 9e3f 06b0 483f 64cd 2940
00000060: b73d e53f 7272 1bc0 e8cc 94bf db59 17be
00000070: 90a1 253f d0d6 9840 89ce 1dbf 605c 2dbf
00000080: 37f5 d2c0 02ac be3f d1ab 5b3f aa39 ab3f
00000090: af0e 153f 730b 833f c401 06be 2145 89bf
000000a0: f1cc 9cbf e81c 1cc1 9549 78c0 e8a0 44c0
000000b0: 8d48 07be c1e7 1f40 2380 e3bd e782 3ec0
000000c0: 14fe 663f 01d9 033f 7dbc f3be d5ab c0be
000000d0: b65f afbf 29bb 75bf d65a 5bbe 88c4 0b3f
000000e0: 111a 073f 5689 4fbf dcf6 b4bf 40d4 083f
000000f0: b507 30bf f6cd cbbf 72cb 3bc0 a03f 94ba
-0.57456046 -1.0682052 1.3798952 0.18456256 -0.24371552 0.5855182 0.16705686 -0.6055719
0.25724182 -0.019480584 -0.37578556 -0.6616604 -2.3713772 -0.20547621 -0.5732726 -0.80660903
8.253399 -2.5405982 1.3734391 -0.57765484 -0.39597714 1.2408549 0.7839359 2.653161
1.7909459 -2.4288602 -1.1625032 -0.14780371 0.6469965 4.776222 -0.6164327 -0.6771908
-6.5924335 1.4896243 0.85809046 1.3376973 0.5822553 1.0237869 -0.13086611 -1.0724221
-1.2250043 -9.757057 -3.879491 -3.072321 -0.1321127 2.4985201 -0.111084245 -2.9767396
0.9023144 0.51502997 -0.47604743 -0.37631097 -1.3701084 -0.9598871 -0.2142137 0.5459676
0.5277415 -0.81068933 -1.4137836 0.5344887 -0.6876176 -1.5922229 -2.9342923 -0.0011310466
