best_models/cnn2-64/conv_block.onnx (onnx, 301682 bytes, 6 tensors)

onnx::Conv_47 f4 [64, 2, 3, 3]
00000000: f044 8fbb bcdf db3b 9c98 773a 4024 e83b
00000010: 9d50 8ebb f201 9fbb 0472 c5ba 3c5f 07bb
00000020: 2c4f d539 3fce a339 4304 d63b 596e a2ba
00000030: 3836 cc3b 4b39 84bb 613e 85bb dee5 ddba
00000040: 08a3 8dbb 98af c13b e5ad e83d fdc1 293d
00000050: c932 4f3e c0ea c33d e6d5 aa3e 1bb3 273e
00000060: d803 1dbe 0c7a 823d e985 85bd fc45 193d
00000070: 42a5 9b3e 9e10 1e3f f895 203d 2ec3 51bf
00000080: ff0f 273f 6e94 8cbe ff58 973e c843 933e
00000090: 80a1 e4bd ba16 8a3d 16ac debd d0c8 be3d
000000a0: ce98 af3d 71ae 8ebc 011c b5bd 6ad0 993d
000000b0: 1dd6 95bc 1670 f63d 3c0b 8e3e d91e 353e
000000c0: 0927 833e 0b8b aabf f39f 863e c4e9 c0bd
000000d0: c222 eb3e dc30 b53c ab0d 913c 4324 553f
000000e0: 06f4 023e 05c6 e63e b88e 11bf f17c 88be
000000f0: 51fc 123e a435 b1be 7a90 bcbe ac62 a83d
00000100: e701 5a3f a537 bd3d 36ca d63e 1051 1ebf
00000110: 8006 80be 8c03 473d 7e8f d8be a662 cbbe
00000120: 5d05 1abe c4af a3be 66b1 293d 9d01 b4be
00000130: d3d9 323e 8038 b13e 3ce1 53bd 1cf7 003d
00000140: 19c1 31be 57a7 3dbe 1935 b6be 915d 03bd
00000150: 0bd2 adbe 133e b13d dc32 a13e 8e7c e9bd
00000160: b8fc f2bc 2288 0bbd 3b97 ce3d 966f d9bd
00000170: b919 56bd 6d8b 073f 32f1 053e f21e 93be
00000180: c8fc 873e 0f1e 663d 1ab1 11be 1af2 573e
00000190: 0a38 cfbd 464d a4bc d4be 9f3e 55bf 1d3e
000001a0: d9b2 95be 1f36 383e 02fe b03c 1d1c 4cbd
000001b0: a0d7 90be f1f9 a4be c428 27be 0bb6 92be
000001c0: e397 503f 21c4 f0be cc13 c4bd a3ef 06bf
000001d0: 9f1f e9bc cba3 9fbe d6e9 33bd 976b 763d
000001e0: 5219 13be a7fd 1ebf 094c 933d 2338 f03d
000001f0: 7105 bf3d 8ffb f0bd 3849 13bc 43c3 87be
00000200: 721d 913d 38d6 11be 48aa a63f c619 ebbe
00000210: c41f f8bc 7dcf 9dbe 78fa 583d 5e8c 7c3d
00000220: b6f1 a8be 65f3 d9be 156d 353f b270 a63d
00000230: f991 0dbf cdfb 11be 2d12 c4be f1e7 a9be
00000240: 12f0 98bb 17fe b7bb afc3 19bb ce6f 5a3b
00000250: d944 dc3b 9c5d 34bb 4564 21bc b5f2 31bb
00000260: a743 dbb9 31c1 163c 14a1 e8bb 2a42 e8b9
00000270: 42b2 85ba b246 c13a eaef b8ba 5427 5abb
00000280: 811f cbba 3a09 ae3a 5b18 633c c3bf 1abe
00000290: 0777 1dbd fbc7 43bd 4e51 3bbe 1b4a e83f
000002a0: be7b a7bd c909 cdbd 5749 283d 86c5 073b
000002b0: 4707 0abe d90e bd3c eb92 cd3d 4cfa f1be
000002c0: 251f ccbd 56b5 243e 10af 5ebd d59c 743d
000002d0: 6f45 533c deb4 cb3c dd7d 59bc 653d c1bc
000002e0: a475 7ebc 0a9a f53b 7f28 493d af5d 16bc
000002f0: a42f 523c e016 60bb e659 e63c 8936 d53b
00000300: b8fd 5abc 0f88 8cbc 9c93 443c 9a15 813d
00000310: bb33 45bc 18f6 2b3c 9f1a b6bd 46fc 8abf
00000320: 1975 55bd df97 b73e 00b3 db3e 16e2 c4bd
00000330: ca33 02bd 5f22 c3bb 2f1b 0abe a3a2 90bd
00000340: 7827 97bf 6398 1bbd 3123 c13e 0ada d63e
00000350: bf11 39bc 0330 a63b c09c dbbd 65a7 72be
00000360: a23e 4b3f a64c da3d 20de 253c 97e5 2b3e
00000370: b888 d1bd e980 ff3c 0459 473b d55b c9bd
00000380: f5e1 dc3d 181d 4f3f 6e43 3cbc bf2e ce3d
00000390: 87a0 443d 1bfe 5dbd 4da2 f03c 413f ec3d
000003a0: e0ec f63b f290 c63d f982 dcbd c75b 8e3b
000003b0: 92cb 3dbd a153 1c3c 4a2f 973e 7495 46be
000003c0: 6440 87bd 0628 d73d d653 5d3d cd4f e7bb
000003d0: 0236 a4be 9a77 cb3d 9094 6d3f c908 b6be
000003e0: 7d00 23bf 8854 bd3e 43ca 8ebd 663a a53e
000003f0: 4a48 e3bd 0cfb d93c f7e3 f7bd 9db6 343b
-0.0043722317 0.006710021 0.0009445043 0.0070843995 -0.004343106 -0.004852527 -0.0015063887 -0.002065613
0.00040685514 0.00031243448 0.0065312698 -0.0012392505 0.0062320493 -0.00403515 -0.004066274 -0.0016929468
-0.0043224134 0.005910825 0.11361293 0.041444767 0.20234217 0.095662594 0.33366317 0.16376917
-0.15333498 0.06370935 -0.06519682 0.037420258 0.3039952 0.61744106 0.03920552 -0.81938446
0.65258783 -0.27456993 0.29560086 0.2876265 -0.11163616 0.06742616 -0.108726665 0.09315646
0.08574067 -0.017417165 -0.08843232 0.07510455 -0.018290574 0.120330974 0.27742946 0.17687549
0.2561572 -1.3323683 0.26293907 -0.09419587 0.45924956 0.022118025 0.017706713 0.83258456
0.127884 0.45072952 -0.56858397 -0.26657823 0.14354064 -0.34611237 -0.36828977 0.08221945
0.8515915 0.09239129 0.4195115 -0.6184244 -0.2500496 0.048587367 -0.42296976 -0.397237
-0.15041108 -0.31970036 0.041428946 -0.3515748 0.17465906 0.3461342 -0.051728472 0.031485662
-0.17358817 -0.18520866 -0.35587385 -0.032071654 -0.33949313 0.08654418 0.31484115 -0.1140071
-0.029661521 -0.034065373 0.10087439 -0.106169865 -0.052270625 0.5294712 0.1308029 -0.28734547
0.26560044 0.05618101 -0.14227715 0.21088448 -0.101181105 -0.020056378 0.31200278 0.15405019
-0.29238012 0.17989396 0.021605495 -0.0498315 -0.2828951 -0.3222194 -0.16324145 -0.28654513
0.8148176 -0.47024634 -0.095740885 -0.52709407 -0.02845746 -0.31179652 -0.043924175 0.0601612
-0.14365128 -0.6210579 0.07192237 0.11729457 0.0932721 -0.11766731 -0.008989625 -0.2651616
0.070856944 -0.14241874 1.3020716 -0.459181 -0.030288585 -0.30822363 0.05297324 0.061657302
-0.3299691 -0.42568508 0.7086957 0.08126964 -0.5530086 -0.1425621 -0.38295117 -0.3318477
-0.0046672905 -0.0056150067 -0.0023462584 0.00333308 0.0067220745 -0.0027521616 -0.009850566 -0.0027152721
-0.0004182134 0.009201334 -0.00709928 -0.00044299784 -0.001020022 0.00147458 -0.0014109586 -0.0033287602
-0.001549706 0.0013277896 0.013860787 -0.15112214 -0.03844359 -0.047798138 -0.18292734 1.8147615
-0.08177899 -0.10011632 0.041085567 0.0020717098 -0.13479339 0.023078369 0.10037788 -0.47261274
-0.09966878 0.16084799 -0.05436617 0.05971988 0.012894972 0.024866518 -0.013274637 -0.023588846
-0.015530977 0.0074951695 0.049110886 -0.009177609 0.012828741 -0.0034193322 0.028119039 0.0065067452
-0.013366155 -0.017154722 0.011998083 0.06302948 -0.012036259 0.010495685 -0.08891796 -1.0858238
-0.052113626 0.35858056 0.42910004 -0.09613435 -0.03178767 -0.005955025 -0.13486932 -0.070622705
-1.180892 -0.037987124 0.3772216 0.41963226 -0.011295735 0.0050716414 -0.10723257 -0.23696668
0.79392445 0.10659151 0.0101237595 0.167868 -0.10231155 0.031189399 0.0030418048 -0.09831969
0.107852854 0.8090377 -0.011490686 0.1006751 0.048004653 -0.054197412 0.029374266 0.11535502
0.007535562 0.09695615 -0.107671686 0.004344437 -0.046336718 0.009541423 0.29528266 -0.1939295
-0.066040784 0.10505681 0.05403503 -0.0070590735 -0.32072455 0.099349216 0.92804813 -0.35553578
-0.6367262 0.36978555 -0.06972172 0.32271117 -0.110977724 0.026608966 -0.12104028 0.0027574666

onnx::Conv_48 f4 [64]
00000000: e196 1eba 129d 7a3f aa45 4bbf af6b 4cbf
00000010: 4a7f 3e3f 9e7e 213f 95a9 a83f 474c b03e
00000020: 9ba8 ffba 944d 9cbe ab29 b9b9 93fb 853f
00000030: b64f a6bf 3659 403f 104a bd3f 181a c7bf
00000040: b211 50bf bf1b 99bf a6cc 8f3f 70da d4bd
00000050: 0e5b a43f 4da8 a03b 7a29 acbf 304a a0bd
00000060: e685 b53e 0ca7 95bf 4c18 803f 970a 45bf
00000070: bfa3 9dbf bbe0 893f 6112 1fbf 1619 1f3a
00000080: db6a 4a3a c2d0 bd3f 5990 293d 95b8 c73f
00000090: a267 4d3e 939d a73b d680 69bb 5b59 7d3a
000000a0: 61a2 23bb 6241 88bf cc1f 37bf a480 8c3f
000000b0: a54b ad3d 6165 cabb b845 803f aee0 9fbd
000000c0: 9b45 b7bf b384 603f bed3 87bf 44e3 02be
000000d0: 045d 37be a53a 88bc db0f a5bf a61b 6e3b
000000e0: 2c33 13bd aab5 a3bb ee8a 90bd 540f 173f
000000f0: 63a3 74bf 5e46 88bf 6e0d 993f c52e ac3f
-0.00060497044 0.9789592 -0.79403174 -0.7985181 0.7441298 0.6308383 1.3176752 0.34433195
-0.0019505204 -0.30527937 -0.00035316995 1.0467399 -1.2993076 0.75136125 1.4788227 -1.5554838
-0.81277 -1.1961592 1.1234329 -0.10393226 1.2840288 0.0049028755 -1.3450158 -0.0782665
0.3545372 -1.1691604 1.0007415 -0.76969284 -1.2315596 1.0771707 -0.6213742 0.0006069107
0.0007721611 1.4829333 0.041397426 1.5603205 0.20059064 0.00511522 -0.003562977 0.0009664499
-0.0024968612 -1.0644953 -0.71532893 1.0976758 0.08461694 -0.006176636 1.0021276 -0.07806526
-1.4318117 0.8770248 -1.0611494 -0.12782007 -0.17906576 -0.016629526 -1.2895464 0.0036332398
-0.035937473 -0.0049960213 -0.07057749 0.59007764 -0.9556181 -1.0646474 1.1957223 1.3451773

onnx::Conv_50 f4 [64, 64, 3, 3]
00000000: fb02 c6b9 52a8 013a 4f2a 183a a4a8 8db8
00000010: eba6 9cb9 6239 93b9 2590 4bb9 0dc1 a4b9
00000020: 2f9a 313a 711e 4c3a b029 98b9 c736 aeba
00000030: 1de6 aab9 4e2a 2d3a 5b06 89ba 3a82 213a
00000040: 5e2a c638 a589 cf3a 0ae6 8939 5483 a239
00000050: dc65 02ba 7a0d f639 93dd 583a 9e94 18ba
00000060: 8728 4ab9 8a52 ba39 73ee 88ba 4d7b 3b39
00000070: 36b0 1db9 eb1f 76ba f6ef a33a d4d9 563a
00000080: ec35 40b9 3505 bd39 38d9 9cb9 ac40 353a
00000090: c24b 203a 84b7 0539 7451 eeb9 28f4 a4b7
000000a0: 9d9e e3b9 0243 67ba 8aca f7b9 42b9 b7b9
000000b0: 88a3 96ba 7e0d 1eba 4fd4 c539 ff52 e938
000000c0: 4c81 11ba c652 51ba 6aa9 b7ba a975 653a
000000d0: 3090 42b9 e3da a9b9 aaec 033a d477 9d38
000000e0: 9ac6 2338 b164 f8ba 9d17 86ba e41f 5aba
000000f0: 26b5 a6ba ca3b 0fba e08e 3439 c509 dfb8
00000100: f5d6 b139 2486 34b7 1578 01ba b190 9539
00000110: 85cb b8b9 cc02 c9ba ff4c 163b 6816 e2b9
00000120: d8f3 1939 ca64 bcb9 e9ee 77b8 ed1d b1b9
00000130: 075d bfb8 8761 79b8 b62b 3aba d083 49ba
00000140: b283 42ba 1c51 9a3a 33b4 9e3a 443b 88ba
00000150: 9711 34b8 922d 5e36 b361 1d3b 2b3a b139
00000160: 5f2d 95b7 ef44 9c3a 03fb 39b9 6a7b 8637
00000170: 3d28 0bba 9808 5239 6f95 c637 9241 7db8
00000180: e205 43b9 f4dc c238 ba32 033a 7218 5439
00000190: 2ba3 d738 bfcd c839 d54c 3dba 1322 2e39
000001a0: 3106 f9b9 05b4 acba 3dc9 d838 7dd6 f0ba
000001b0: 9c28 883a 33fb bb38 2677 463a 2be5 153a
000001c0: ac27 8d3a 468a a63a c274 60b9 dda8 ad3a
000001d0: 3df6 b939 d40d 513a 4ac5 8b3a b8b2 02ba
000001e0: 1434 9db9 23ea f83a 8c79 68ba d8c5 a3ba
000001f0: 1f59 cb3a df18 243a 2dee 7636 f9b0 7aba
00000200: 96f7 aeb9 c5de 8139 c94e b0b9 4cfd 5eba
00000210: 5ccd 3f3a d8ec dbb9 0339 e237 bfc1 0eba
00000220: 6233 fdb9 d1b1 133a 56d4 0a3a f181 62ba
00000230: bd70 653a 2035 9bb9 28ed 2339 4f5f 5dba
00000240: 269d 90b9 d56c a0b9 31b3 163a 5261 a439
00000250: 3efc 2db9 2266 a936 1c4b f339 61f1 893a
00000260: 980a 8bb9 07c8 c1b9 abbf e339 dbc7 baba
00000270: efbe 0d3a dff0 013a 9cd8 7a3a a5d9 3f3a
00000280: 4632 6a3a 6304 f638 9726 c139 d874 fe39
00000290: a454 07b9 7c60 05bb 7ee2 00bb 1c9c 3cba
000002a0: e550 363a d5ed dab9 7698 e138 7637 8fb9
000002b0: 054c ebb9 bf53 67b6 dcc2 5039 72a6 3cba
000002c0: b060 ed38 cec5 e7b9 f5c4 a63a b7bc ddb9
000002d0: 820b dc39 c419 a439 5954 c539 e27e aa39
000002e0: 891f f239 c9e6 56ba d7a6 bfba c545 5eb9
000002f0: 8d0f 0fba db65 903a 5701 33ba 22a9 0637
00000300: bbbd 203a 20dc 343a 7b15 1f39 6c33 ac38
00000310: 769c bf39 2f66 b7b9 c40a 903a af12 853a
00000320: 0108 77ba 75c5 0f3a 82f3 a53a 63ed b73a
00000330: 1583 4838 d8b4 24ba 3970 fe39 e8a4 f53a
00000340: 8558 d0ba dace 6c3a 80dc a83a accd 5b39
00000350: 2e80 0339 315c fc3a c3d0 be3a 7c87 463b
00000360: 0bcb a63a f6fc a939 e30e 4a39 6792 9939
00000370: f4bd 8ab9 55a8 70ba a1b5 1438 5785 02ba
00000380: 5c64 15b8 ddcc be39 0a73 623a c478 0e3a
00000390: 61d7 abb8 f041 873a e209 503a e0a8 023a
000003a0: f467 303b 770d a439 8af4 053b 84ff d8b9
000003b0: 2539 13ba e89a 2ab9 243a 213a 57e0 46b9
000003c0: f7ac 98b9 2a2a 5c3a 71d1 023a 694b 9d39
000003d0: b219 333a 85ac 313a 052c 083a 0bd1 1d3b
000003e0: 5905 3dba 7e64 dab9 4335 fe3a bb3f 0ebb
000003f0: ce54 c539 ce51 d338 8de2 beba ff12 04b9
-0.00037767724 0.0004946041 0.00058046443 -6.754816e-05 -0.00029879002 -0.00028080778 -0.00019413287 -0.00031424352
0.00067749893 0.00077865185 -0.0002902276 -0.0013291471 -0.00032596375 0.000660573 -0.0010454165 0.0006161068
9.449267e-05 0.0015833868 0.0002630207 0.00030996895 -0.00049742847 0.00046930817 0.0008272763 -0.00058204855
-0.00019279319 0.0003553818 -0.001044704 0.00017879643 -0.0001503833 -0.00093889114 0.0012507427 0.0008195911
-0.00018330634 0.0003605277 -0.0002991648 0.0006914239 0.00061148044 0.00012752233 -0.00045455585 -1.9664018e-05
-0.0004341499 -0.00088219356 -0.00047262415 -0.00035042508 -0.0011492828 -0.0006029232 0.0003773295 0.00011125765
-0.0005550578 -0.00079850515 -0.0014012281 0.00087531895 -0.00018554996 -0.00032397275 0.0005032519 7.508663e-05
3.904719e-05 -0.0018950907 -0.0010230426 -0.0008320792 -0.0012718781 -0.00054639264 0.00017219363 -0.00010635288
0.00033920226 -1.0760068e-05 -0.0004938853 0.00028527298 -0.0003524685 -0.0015335917 0.0022934077 -0.00043122773
0.00014682056 -0.00035933248 -5.911189e-05 -0.00033782367 -9.1249174e-05 -5.9457056e-05 -0.00071018504 -0.0007687183
-0.0007420137 0.001177344 0.0012108147 -0.0010393639 -4.2931726e-05 3.3107103e-06 0.0024014532 0.0003380341
-1.7783312e-05 0.0011922399 -0.00017736484 1.6031514e-05 -0.0005308425 0.00020030362 2.3673025e-05 -6.0380968e-05
-0.0001859884 9.2917966e-05 0.0005004812 0.00020227002 0.00010282391 0.00038300265 -0.00072212267 0.00016606627
-0.00047497594 -0.0013176209 0.00010337166 -0.0018374469 0.0010388079 8.963644e-05 0.0007570855 0.00057180476
0.001076927 0.0012706004 -0.000214058 0.0013249178 0.00035469412 0.0007974778 0.0010663655 -0.00049857376
-0.00029984175 0.0018990677 -0.00088682096 -0.0012494875 0.0015514231 0.00062598096 3.6795493e-06 -0.0009563114
-0.00033372332 0.00024770774 -0.00033628035 -0.0008506372 0.00073166727 -0.00041947397 2.6967848e-05 -0.00054457405
-0.00048294204 0.00056341017 0.0005295923 -0.00086405786 0.0008752456 -0.00029603485 0.00015633239 -0.0008444683
-0.00027582905 -0.00030598664 0.00057487475 0.00031353027 -0.00016592533 5.0484823e-06 0.00046404533 0.0010524207
-0.0002652004 -0.0003696086 0.00043439618 -0.0014250235 0.00054071745 0.0004956852 0.00095690205 0.00073185033
0.0008933883 0.00011731011 0.0003684058 0.0004853371 -0.00012906134 -0.0020351699 -0.001966625 -0.0007194893
0.0006954803 -0.000417574 0.00010757234 -0.00027316407 -0.00044879332 -3.447043e-06 0.00019909017 -0.0007196433
0.0001131905 -0.0004420713 0.0012723493 -0.00042293008 0.00041970244 0.00031299714 0.00037637612 0.00032519462
0.00046181332 -0.0008197842 -0.0014621866 -0.00021197561 -0.00054573343 0.0011016683 -0.0006828508 8.026402e-06
0.00061317877 0.0006899256 0.00015171424 8.211177e-05 0.0003654693 -0.00034980613 0.0010989537 0.0010152663
-0.0009423495 0.00054844405 0.0012661072 0.0014032539 4.7805795e-05 -0.00062830513 0.00048530268 0.0018741162
-0.0015895522 0.0009033509 0.0012883097 0.00020962086 0.00012540884 0.0019253549 0.0014558065 0.0030293157
0.0012725306 0.00032422662 0.00019269767 0.00029291512 -0.00026462937 -0.0009180357 3.5455105e-05 -0.00049789756
-3.5617835e-05 0.0003639226 0.0008638358 0.00054348656 -8.194033e-05 0.0010319334 0.0007936043 0.0004984271
0.002691743 0.0003129055 0.0020439946 -0.00041389104 -0.000561612 -0.0001627017 0.0006150326 -0.00018966325
-0.00029120568 0.0008398617 0.00049903156 0.00030001558 0.0006832137 0.00067777216 0.00051945477 0.0024080898
-0.00072105747 -0.00041655073 0.0019394535 -0.0021705467 0.00037637952 0.00010076501 -0.0014563367 -0.00012595578

onnx::Conv_51 f4 [64]
00000000: 003c 423d 9056 5bbe a4bb e63e a8b1 fdbe
00000010: a200 0e3f 1b66 1ebd 42d7 84be 70ef b03e
00000020: d2ec 8ebe 97d2 0cc0 747c 7240 de81 6d3f
00000030: 2b6a 91bd f0c4 dc3f e629 3abe c09a 98be
00000040: 7284 c2c0 ec99 c3bd fa3f bf3f 00d5 7c38
00000050: 1875 f23e 5ac7 7f3f 9154 62c0 9ab7 68bd
00000060: 9253 0e3e 6c01 9c40 129a 103e ceec a2be
00000070: fd51 78be 044d 4e3e c9d5 1f3c d3d2 b7bf
00000080: 7e87 da3f 1c19 69be d884 953c 8677 eabf
00000090: 16ee a4c0 f580 6bc0 8cec a6be 0e45 533c
000000a0: fc02 97bf 6261 853f 14a4 e8bd 86c9 30c0
000000b0: 2ef8 83c0 d481 a5be bdb5 abc0 a169 6abe
000000c0: 657c e43e eebd 4b40 3292 cebf 1c1a a0bd
000000d0: 461d abbe 1213 83c0 eafb 83bf f862 ddbe
000000e0: 28b5 45bd 9f9a 0d40 58a3 87bb 64b1 bebc
000000f0: 9cf7 7abf 3436 77bf 7d79 1a40 57ef 03be
0.0474205 -0.2141974 0.45065033 -0.49549603 0.55469716 -0.038671594 -0.2594548 0.34557676
-0.27915055 -2.2003534 3.788846 0.92776287 -0.07100328 1.72476 -0.18180045 -0.29805565
-6.0786676 -0.09550843 1.4941399 6.0279854e-05 0.4735496 0.9991356 -3.5364115 -0.05681572
0.13899067 4.8751736 0.14121273 -0.31821293 -0.24250026 0.20146567 0.00975556 -1.4361213
1.7072599 -0.22763485 0.018251821 -1.8317726 -5.154063 -3.679746 -0.32602346 0.012894882
-1.1797786 1.0420344 -0.113594204 -2.7623 -4.1240454 -0.32325613 -5.365935 -0.22891857
0.44626155 3.1834674 -1.6138365 -0.0781748 -0.3342077 -4.096078 -1.0311253 -0.4323957
-0.048268467 2.2125623 -0.004139345 -0.023277946 -0.9803407 -0.9656708 2.413665 -0.1288427

onnx::Conv_53 f4 [64, 64, 3, 3]
00000000: ad32 2a34 08ae 4932 9f45 41b4 058d 90b2
00000010: 1977 f2b3 035c 42b4 5e25 c133 321c 6b33
00000020: c4ea 97b2 76a6 b033 5aa5 cf34 8412 8634
00000030: d678 9634 14f7 2d35 c0fb c534 5604 5eb3
00000040: 6d31 8134 6aea 7eb3 a99d 83b4 3d4d 2e32
00000050: 5d11 1133 8eb3 eb33 65cb 4e34 c475 9234
00000060: d68e 6db4 efbd cd33 6754 9f34 af07 5532
00000070: 5c0f 9034 5bcb 8334 2817 4333 c76b db34
00000080: 9db4 a134 573e c933 e414 9034 d30d 2e33
00000090: 0a30 d933 5097 2c34 846f 06b4 247a 67b4
000000a0: 0749 0cb5 2591 dc34 b2f2 3c34 1278 a7b3
000000b0: de39 9633 61df 08b4 4cc9 c233 1c81 93b3
000000c0: 2e7d 8db3 18ff 64b3 d90a 0134 fb89 7134
000000d0: 7415 76b4 24a4 04b4 169d 0e33 cb5e ac34
000000e0: 4702 8ab3 fa51 3db4 a6bd f6b2 10f3 a0b3
000000f0: 0a80 1ab5 2c1d 55b5 8ccf efb4 83bc 23b4
00000100: 2fb7 2c34 5329 5134 b9f5 6e34 7b05 c834
00000110: 494a 2734 75ec 87b2 7ea6 c633 4d8f 9b34
00000120: 8213 7434 c7b0 4234 7cab 40b4 a722 76b4
00000130: 4a18 98b3 b7e2 bd33 330a 9a34 38fd aab3
00000140: 66c0 a6b4 f0f6 8e33 a33f 8e34 bac2 c932
00000150: 65d6 16b3 e5ef e934 da8d 0934 d280 9db2
00000160: b1ab b233 29ba c6b3 21ad a5b4 8e48 7cb4
00000170: 38c5 8033 14f7 a934 1678 1035 9c46 ed33
00000180: 31c6 9c34 eb5b 0535 14d9 9834 b595 dd33
00000190: 3e92 9db3 1ffe 23b4 08e3 8c32 825a 8b32
000001a0: 95e6 43b4 a916 7db3 db86 9c32 c969 12b3
000001b0: b2a1 9db4 aec6 bc33 042f 78b4 c3b0 48b4
000001c0: 58bc 82b4 dd46 7db4 1d37 3b32 be7f 77b4
000001d0: 52b5 0bb4 9ab6 05b4 e602 ffb3 ce04 28b3
000001e0: a713 0eb5 c7cf eeb4 e8cd 4f34 dba9 a834
000001f0: ebbc f433 5b94 fd33 3c85 f933 5e1c 2833
00000200: 621a 0fb4 2634 06b4 e2f9 5db4 8835 a032
00000210: 79b1 9db3 0604 0ab4 5aa5 27b4 7b10 6e34
00000220: a2d5 eab2 46fc b3b4 850f 5fb4 82ee b2b4
00000230: e8bb 2734 3fab 2634 9dd8 d8b2 641f 5cb4
00000240: a5ff 88b4 ee40 da34 7500 2f34 7f61 7c34
00000250: d551 6032 b1dc 1eb2 cb15 2234 09e4 91b4
00000260: 901e b433 615d a734 3363 b134 ef8f 1f34
00000270: d38d 5634 3e73 91b2 d8af 8a34 9dbf 9f33
00000280: 71da 8234 cb88 5433 ce13 5e34 5fb9 b534
00000290: 9897 9734 c5c8 6933 d2ee 2035 6494 0435
000002a0: 5190 8db3 2f67 9434 ad04 06b4 9893 55b4
000002b0: dcb6 93b4 d9ba 9ab4 e715 dfb3 3ba7 b133
000002c0: 1eea 01b5 f9b0 03b3 19cd ceb4 d865 23b3
000002d0: 66be a3b4 dae1 d9b3 3a65 f833 f88c 6333
000002e0: f8ba 1134 40f4 a431 c86c fe32 6074 c832
000002f0: 1b63 37b4 9178 91b3 09e8 34b4 2e7a b633
00000300: d4f2 1fb3 d076 8d32 0c5f 9333 fd17 94b2
00000310: 12c4 4633 9d19 1eb2 8281 d132 9414 c733
00000320: 4b17 b0b3 2037 a6b3 d2cc 80b2 3d99 47b4
00000330: 0c31 4833 a829 9bb3 9463 a0b3 9d50 c734
00000340: 41e3 8cb4 55b3 88b4 e45d 7f33 b721 c7b3
00000350: 103b da34 f727 9ab4 d7c9 cc34 2cdc 38b4
00000360: 58ac 05b3 3dd0 1c34 6dbf df31 82d3 81b2
00000370: c2bf b033 4741 6233 0c34 0d34 aef6 fab2
00000380: 39e7 1eb3 e6f4 7bb4 e6be 4332 d106 4234
00000390: 9249 7fb3 4a10 4034 5554 2b34 b01b 0fb4
000003a0: 7557 7a34 5b94 3cb4 d312 a8b3 5f3a ff33
000003b0: 9aa5 01b3 676a 9732 d019 feb3 fff6 9db3
000003c0: 28eb c1b2 4c4f 17b4 2bb5 3d32 ab30 9433
000003d0: 3088 17b4 6e5d a832 aa2a 1134 345a 3934
000003e0: 6cdd 8533 9d22 3133 82c7 af34 553d 3834
000003f0: 8a77 b7b3 df69 89b4 9716 4db4 8397 a7b4
1.585092e-07 1.173931e-08 -1.7999854e-07 -1.6827935e-08 -1.1290667e-07 -1.8101132e-07 8.99406e-08 5.4740845e-08
-1.7685473e-08 8.225918e-08 3.8677064e-07 2.4972917e-07 2.8027597e-07 6.480707e-07 3.6877282e-07 -5.1692346e-08
2.4064084e-07 -5.9352182e-08 -2.4515364e-07 1.0145695e-08 3.3776235e-08 1.0975701e-07 1.925924e-07 2.7280305e-07
-2.2124308e-07 9.580605e-08 2.967747e-07 1.2399979e-08 2.6833266e-07 2.4548612e-07 4.5423036e-08 4.0870347e-07
3.012e-07 9.3711314e-08 2.683729e-07 4.0525105e-08 1.0113588e-07 1.6073795e-07 -1.2520292e-07 -2.1557986e-07
-5.2260333e-07 4.10838e-07 1.7597156e-07 -7.798384e-08 6.995445e-08 -1.2747252e-07 9.070445e-08 -6.868706e-08
-6.588594e-08 -5.3317393e-08 1.2018008e-07 2.2495071e-07 -2.291834e-07 -1.2353172e-07 3.320482e-08 3.2106468e-07
-6.42654e-08 -1.763182e-07 -2.8724411e-08 -7.4947934e-08 -5.755579e-07 -7.9391134e-07 -4.466823e-07 -1.5249138e-07
1.608539e-07 1.9479675e-07 2.225487e-07 3.725689e-07 1.5580112e-07 -1.5823597e-08 9.250378e-08 2.8975265e-07
2.2731368e-07 1.8131969e-07 -1.7943779e-07 -2.2923142e-07 -7.08247e-08 8.8422375e-08 2.8692156e-07 -7.962302e-08
-3.1059898e-07 6.657308e-08 2.6495863e-07 2.3488031e-08 -3.5119587e-08 4.3574178e-07 1.2810725e-07 -1.8335786e-08
8.3200014e-08 -9.253956e-08 -3.0859613e-07 -2.3495724e-07 5.9963384e-08 3.1658476e-07 5.381893e-07 1.1049016e-07
2.9201468e-07 4.968012e-07 2.847015e-07 1.0318346e-07 -7.3374835e-08 -1.5273007e-07 1.6401387e-08 1.6222888e-08
-1.8244675e-07 -5.8926762e-08 1.8222115e-08 -3.4089485e-08 -2.9361178e-07 8.790572e-08 -2.3113904e-07 -1.8690757e-07
-2.4351425e-07 -2.3588241e-07 1.0897364e-08 -2.305014e-07 -1.3011348e-07 -1.245302e-07 -1.187489e-07 -3.9119918e-08
-5.292772e-07 -4.4482132e-07 1.9353286e-07 3.1416025e-07 1.13964994e-07 1.1808216e-07 1.1619201e-07 3.9141348e-08
-1.3327511e-07 -1.2498694e-07 -2.0673136e-07 1.8650795e-08 -7.343164e-08 -1.2853715e-07 -1.5613242e-07 2.2171473e-07
-2.7338334e-08 -3.35249e-07 -2.077414e-07 -3.332862e-07 1.5621447e-07 1.5522254e-07 -2.5244214e-08 -2.0500516e-07
-2.551798e-07 4.0652907e-07 1.6298311e-07 2.3504798e-07 1.30571225e-08 -9.24699e-09 1.5095354e-07 -2.7174272e-07
8.3874625e-08 3.1174116e-07 3.3040996e-07 1.4860392e-07 1.9981898e-07 -1.6932628e-08 2.5832446e-07 7.438869e-08
2.4373324e-07 4.948451e-08 2.0682566e-07 3.3848752e-07 2.823624e-07 5.443214e-08 5.9952174e-07 4.938977e-07
-6.592075e-08 2.7642224e-07 -1.2481424e-07 -1.9890865e-07 -2.751393e-07 -2.8820685e-07 -1.0388231e-07 8.272624e-08
-4.839693e-07 -3.066177e-08 -3.8519718e-07 -3.804402e-08 -3.049965e-07 -1.0145932e-07 1.1566813e-07 5.2980766e-08
1.3572196e-07 4.800796e-09 2.961896e-08 2.3335986e-08 -1.7079257e-07 -6.7740196e-08 -1.684822e-07 8.49726e-08
-3.7240923e-08 1.646859e-08 6.86251e-08 -1.7240376e-08 4.6278792e-08 -9.202634e-09 2.4389696e-08 9.270403e-08
-8.1998756e-08 -7.7400045e-08 -1.4994303e-08 -1.8589067e-07 4.6610737e-08 -7.225327e-08 -7.468694e-08 3.7125292e-07
-2.624238e-07 -2.5462455e-07 5.9457207e-08 -9.272792e-08 4.0648638e-07 -2.8713814e-07 3.814482e-07 -1.7216433e-07
-3.112322e-08 1.4604389e-07 6.511917e-09 -1.511376e-08 8.230519e-08 5.2679095e-08 1.3150583e-07 -2.9216007e-08
-3.6997537e-08 -2.346529e-07 1.1393899e-08 1.8070138e-07 -5.9438726e-08 1.788732e-07 1.5956296e-07 -1.3327985e-07
2.3314881e-07 -1.7562836e-07 -7.826534e-08 1.18849805e-07 -3.0185767e-08 1.76271e-08 -1.1832492e-07 -7.3558105e-08
-2.2575094e-08 -1.4091819e-07 1.1042441e-08 6.90064e-08 -1.4112516e-07 1.9600261e-08 1.3519698e-07 1.7262283e-07
6.2335715e-08 4.1242505e-08 3.274145e-07 1.7158648e-07 -8.5433456e-08 -2.559527e-07 -1.9100331e-07 -3.1216413e-07

onnx::Conv_54 f4 [64]
00000000: e6a3 fd3f ac8b 9f3f 68ed 0140 945a c53f
00000010: debb e4bf 0e11 fe3f 6555 0ec0 37c8 47c0
00000020: 2428 e4bf 230b 1bc0 e388 e8bf 6cbd 28bf
00000030: 5af0 d4bf 92bb f13f e11a 1440 896f 1140
00000040: dfde 0f40 0316 0ec0 ba7a fb3f acae 5cc0
00000050: e17e c33f d266 0bc0 ebdf e1bf be2f 2e40
00000060: e0bb 13c0 37a0 bbbf 263c 0ec0 bea9 f6bf
00000070: 3faf dc3f 3d9c 3d40 64db 2640 9e0d 10c0
00000080: ce3d 7b3f d36e 32c0 28d4 0e40 1361 13c0
00000090: e8d5 a63f ec62 15bf 517e 2040 96ba 0440
000000a0: 509a d1bf a111 22c0 5c6b 2ac0 68fb 28c0
000000b0: a4fd 1e40 f518 05c0 6a80 e2bf 842c e3bf
000000c0: 7cb4 dcbf 32ee f2bf 022e 1fc0 e6d0 4040
000000d0: 528d e7bf 6fcd b3bf 31c1 14c0 3f99 3140
000000e0: 8c43 b0be 3f99 41c0 7e12 c83f 0386 0a40
000000f0: 7438 12c0 35ff 13c0 f495 04c0 503d fd3f
1.9815643 1.24645 2.0301151 1.5418267 -1.7869833 1.9848955 -2.223962 -3.1215951
-1.782475 -2.4225547 -1.8166775 -0.65914035 -1.663585 1.8885367 2.3141406 2.2724326
2.247978 -2.2200935 1.9646828 -3.4481611 1.5273095 -2.1781507 -1.7646459 2.721664
-2.308342 -1.4658269 -2.2224212 -1.9270551 1.7240981 2.962661 2.6071405 -2.2508311
0.9814118 -2.7880142 2.231699 -2.3028 1.3034029 -0.5835407 2.5077097 2.0738883
-1.6375217 -2.532326 -2.6628027 -2.6403446 2.484231 -2.0796483 -1.7695439 -1.774796
-1.724258 -1.8978941 -2.487183 3.0127501 -1.8090003 -1.4047068 -2.3242915 2.7749784
-0.34426534 -3.0249784 1.5630643 2.1644294 -2.2846956 -2.3124516 -2.0716524 1.9784336
