best_models/cnn2-64/policy_head.onnx (onnx, 11796 bytes, 4 tensors)

layers.4.weight f4 [36, 72]
00000000: 8f20 aa3f 0372 793e ef7b 8c3a 0e7f 4cbe
00000010: 7f5e 02be 05c1 c1bd efa9 d93e 4976 0b3f
00000020: 1801 1ebd cedb 8ebe a4ba 9cbe 0969 8dbe
00000030: 88b5 54be 2f57 f33d 33e4 eebd 69e7 25be
00000040: 6b42 8abe 5204 5cbe 7e72 9ebd af16 babd
00000050: 6030 b5bd a952 16be 9c27 29be 6987 d1bd
00000060: 475c 383c 12f8 2dbe ac9b 7dbe 40f9 8bbe
00000070: 18af 8fbe 1343 c23c 3ae2 67be a9fe 93be
00000080: a563 32be 5999 18bd a8b7 03be 0a4e 4dbe
00000090: 89b8 ca3f d83a cf3e 7104 0cbe 7387 3ebe
000000a0: 76ea 3cbe 3083 55be 4a28 ad3e 85f3 a63d
000000b0: 4fe2 3fbb 091c c93d 2164 313c 80a6 a7bc
000000c0: 7830 683d eded 28bc d3c1 353c 27c0 b63d
000000d0: 6b17 e83b 2f6c acbc a4fe 9cbd 979b 253e
000000e0: 895c 733c 50c2 883c 1ad2 b53d 54c5 fd3c
000000f0: 8092 57be 71a0 a4bd 4854 ed3d 6059 9e3d
00000100: 5b92 1ebe 91f5 ebbd 6ce7 1ebd fa3f c6bc
00000110: 2435 87bd 2c32 77bc 4a9f 08be b22a bbbd
00000120: d50c 333f dee3 e03f 7924 17be 6dcf 9fbd
00000130: 32a6 6dba 1262 2ebe aa66 3a3d 949b 1b3f
00000140: 508e 153f e66b 083e 5b03 27be 6040 48be
00000150: d555 06be 7c20 04be 5e03 5abe b68c 17be
00000160: e6f2 74be 6a8c 96be b47d d1bd 40de 0f3c
00000170: 2057 11be e70a 93be 5e57 47be 2e0d e5bd
00000180: f2d2 e9bc b5ae 1bbe ab3b 40be 305f 0cbe
00000190: 9b86 8ebe 6129 60bd f154 0fbe 9c5e 0bbe
000001a0: aa59 efbd 5ba3 56be 3670 fd3c 4854 e1bd
000001b0: 45ac 43be e7cb d13f 91c1 25be dcd7 8abd
000001c0: 9003 38bd 227b aabd 2189 473d c45a f6bd
000001d0: 8653 d2be 5a8c c9bd 900b 4cbe 1b94 c1bd
000001e0: 985a 1d3d 6bff 9c3d 5362 b23d 3f17 753c
000001f0: de1b b73d 3905 8e3d cc76 d0bc d8e5 98bc
00000200: 9356 e33c 2698 b9bc 6db2 083d bc42 633d
00000210: 7f1e 52be 8ca5 19be b4d0 393c 4039 9abd
00000220: ada1 fdbd f5d7 7bbe 0525 e2bd 2223 21be
00000230: 3126 5bbc c539 263c 37af 24be b327 a4be
00000240: c1f3 2bbe aceb 453f d67d b13f 5f9e 6a3e
00000250: fad2 5bbd df4a 50be 0ee3 8cbe 9beb 253d
00000260: 487e 133f cee5 f03e 804a d3bd bc75 adbe
00000270: 35b9 14bc 01c7 cdbd 9394 66be 0326 7fbd
00000280: 55ba 34be 7f50 0bbe 45ea 48be 86fd 48bd
00000290: 5706 51be 70d3 53be b974 13be 2eb6 4ebe
000002a0: 426f 063e 1f75 1cbe 03d7 69be 36d1 0fbe
000002b0: 7f8c 55be 5b25 f0bc 459f 36be e8c7 82be
000002c0: 8263 0fbe fcc3 acbd c301 853d 8f68 33be
000002d0: 2994 1a3d 77ed d2be b281 c73f 0947 0b3d
000002e0: 0cdc 9d3d 2524 98bd 9d32 233e 2f33 80ba
000002f0: 8d27 ab3d fb5d bdbd ec32 c6bc 3b66 c8bb
00000300: 02fe 573d e235 22bd ebff c1bc a6ee 423d
00000310: e190 103d 4467 2a3d 228c d93d 61b1 713d
00000320: 4083 1b3d b7d2 c63d d5ba c33c 2384 a93d
00000330: c032 8ebe e499 73be f66a b63d 1071 2639
00000340: c255 eebd 0ae5 8abe 54fd 3bbe 00c3 06be
00000350: 4f78 66bd 805f 5d3d d6c6 2ebe 225a 9abe
00000360: 44a7 41be dc80 b4bd 3d33 503f 7210 9a3f
00000370: e343 793d 027c 7abe c8ce 02be 7867 a0bd
00000380: de74 9c3a 5549 153f 8048 2a3f 4cd9 4bbe
00000390: caee 2dbe bb0f 53bd 6f29 35be 00d5 0abe
000003a0: 0fd5 07bd 91f1 6bbd 7a94 dcbd b14b 3cbe
000003b0: 5497 d4bd f79a 54be bb6a 1dbe 646c 21be
000003c0: 99be 8f3d 91c5 56be e3b7 53be 960e 4fbc
000003d0: 8750 3ebe b056 b03c a05f 09be e438 38be
000003e0: 1c34 04be 16be 44be 34f0 e2bc afb7 01be
000003f0: fac1 183d 5e11 693d 7060 09bf 8159 b13f
1.3291186 0.24359898 0.0010718087 -0.19970343 -0.1273136 -0.09460644 0.42512462 0.54477364
-0.03857526 -0.27902073 -0.30611145 -0.27619198 -0.20772374 0.11881863 -0.11664619 -0.16201557
-0.27003798 -0.21486023 -0.077366814 -0.09086358 -0.088471174 -0.1467997 -0.16519016 -0.102309056
0.011252469 -0.16989163 -0.24766415 -0.273386 -0.28063273 0.023713624 -0.22644892 -0.28905228
-0.17420824 -0.03725562 -0.12863028 -0.20049301 1.5837566 0.40474582 -0.1367357 -0.18606357
-0.18448815 -0.20850825 0.338198 0.081519164 -0.0029279178 0.098198004 0.010827095 -0.020465136
0.05668685 -0.010310632 0.011093575 0.08923369 0.0070828698 -0.02104768 -0.07665756 0.16172634
0.014853605 0.016694218 0.08877964 0.030977882 -0.21051979 -0.08038414 0.11588341 0.07731891
-0.15485518 -0.115214474 -0.03879492 -0.024200428 -0.06601933 -0.0150876455 -0.13342014 -0.09139003
0.69941455 1.756954 -0.14760007 -0.07803235 -0.00090655976 -0.17029598 0.045508064 0.6078427
0.58420277 0.1332241 -0.16309874 -0.19555807 -0.1311868 -0.12903017 -0.21290347 -0.1479977
-0.23920783 -0.29404002 -0.10229054 0.008781016 -0.14193392 -0.28719255 -0.19466922 -0.111841545
-0.02854297 -0.15203364 -0.18772762 -0.13708186 -0.2783707 -0.054726962 -0.13997246 -0.1361031
-0.11687024 -0.20960753 0.030937295 -0.110024035 -0.19108684 1.6390351 -0.16187121 -0.06779453
-0.044925272 -0.08324267 0.04871476 -0.12029031 -0.41079348 -0.09841223 -0.19926286 -0.09452077
0.038416475 0.076659046 0.0871016 0.014959156 0.08940862 0.0693459 -0.025447272 -0.018664286
0.027751243 -0.022655558 0.033373285 0.055483565 -0.20519446 -0.15004557 0.011341263 -0.07530451
-0.12384353 -0.245941 -0.11042217 -0.15736058 -0.013375805 0.010145609 -0.16082464 -0.32061538
-0.16792203 0.7731273 1.3866527 0.22911976 -0.053668 -0.20341061 -0.2751698 0.040507894
0.57614565 0.47050327 -0.10316944 -0.33878887 -0.00907736 -0.100477226 -0.22517614 -0.06229211
-0.17649205 -0.13604926 -0.19620617 -0.049069904 -0.20412575 -0.20686126 -0.14399995 -0.20186684
0.13128379 -0.15279053 -0.22835927 -0.14044651 -0.20854376 -0.029314687 -0.17834194 -0.2554314
-0.14002803 -0.084358186 0.06494477 -0.17520355 0.037738953 -0.41196796 1.5586455 0.03400329
0.07707986 -0.07428769 0.15937276 -0.0009780879 0.08357153 -0.09246441 -0.024194203 -0.0061157024
0.052732475 -0.039602168 -0.023681602 0.047590874 0.035294417 0.041602388 0.10622431 0.059007052
0.037966967 0.097081594 0.0238928 0.08277156 -0.27773094 -0.23789173 0.0890712 0.00015873113
-0.11637451 -0.27127868 -0.18358356 -0.13160324 -0.05626708 0.054046154 -0.17068037 -0.3014689
-0.18911463 -0.088136405 0.81328183 1.2036269 0.060855757 -0.24461368 -0.12774193 -0.07832235
0.0011936685 0.5831502 0.66516876 -0.19907111 -0.16985622 -0.051528674 -0.17691587 -0.13557816
-0.033162173 -0.057603423 -0.10770507 -0.18388249 -0.10380426 -0.2076224 -0.15372746 -0.15764004
0.070187755 -0.20973803 -0.20675616 -0.012637755 -0.18585406 0.02152571 -0.13415384 -0.17990452
-0.12910503 -0.19213137 -0.027702428 -0.12667726 0.037294365 0.05690133 -0.53662777 1.385544

layers.4.bias f4 [36]
00000000: 5015 043f 9667 793e 6291 603e b0c2 3c3d
00000010: 9c08 7dbc 08f4 243f 581c 1e3e 76a7 07be
00000020: bd4d 0abe 68b8 ccbd 8b85 0bbe 9d0b e9bd
00000030: fd4f 0f3c 190d a9be a8d1 51bc cf7c 50bd
00000040: 651f 76be 9a82 08bd 65e8 7e3c ec95 52bd
00000050: 0484 93bb c2c2 86bd e09b 0f3d 2213 ac3e
00000060: 40c2 eebd 467a 8f3e e081 6f3b a49d 80be
00000070: ebba cdbd 2718 fabd 0cfc 663f 1214 3c3b
00000080: c39d 9fbe becf 97be 97d4 85bd 5bf7 4c3f
0.5159502 0.24355921 0.21930459 0.046084106 -0.015443947 0.6443486 0.154405 -0.13247475
-0.13506217 -0.0999611 -0.13625161 -0.11379168 0.008747098 -0.33017805 -0.012806334 -0.050900277
-0.24035414 -0.033327676 0.015558337 -0.051412508 -0.0045018215 -0.06580116 0.035060763 0.33608347
-0.11658144 0.28022975 0.0036545917 -0.2512027 -0.100454174 -0.12211638 0.90228343 0.0028698486
-0.3117505 -0.29650682 -0.06534689 0.80064934

onnx::Conv_15 f4 [2, 64, 1, 1]
00000000: 987f 1239 95c0 033f 1671 80b9 2c50 533f
00000010: 05ae 103a 75da 9bbe 2cdb 4439 1274 6e3f
00000020: 4dd6 c5bc 6c0d 39b9 a3ce 8239 f701 43be
00000030: 3a00 3640 a3a2 10b9 8526 0b3a 1962 64b9
00000040: 70f2 09c0 d79b 0c40 10ba de3e 36cb 9f3f
00000050: fedf 76bd 9df4 1ec0 ecbb 92bb 55a1 c5bd
00000060: 9980 8b39 9bf9 b43f d75e 0539 7aad 913f
00000070: 69dc b0bc 2ef0 54c0 b34e c3b9 acfd 1e39
00000080: eab8 4940 9171 85bf 582c 8dbf 83ec 4939
00000090: 3663 aebe e638 f5bf 71a4 bd39 b0f7 88b8
000000a0: ada7 fe38 0e46 65b9 ed25 853e b388 77bf
000000b0: 9c9b 1740 f499 d4bf 219f efb9 5547 cf3f
000000c0: cbd9 603f b390 5740 3951 a7b7 f69c 69c0
000000d0: 7468 64bb eb15 dc3f 9764 5939 8299 24c0
000000e0: b420 88bf 3e32 ef3f e11b 2d3e 8939 5cb9
000000f0: 03e6 b53f 072e 1e39 cce4 fc3e 72d3 b0be
00000100: 0d21 f2b8 8493 c5bf c1ee 73ba 4710 81c0
00000110: bb02 66ba a066 563f 749d 8c38 6248 793f
00000120: aaba 7d3d 8adc 3b3a 7bf5 9ab8 2e5b 323f
00000130: f95b e53f 9fed 0fb8 18b3 c9b9 05f7 a0ba
00000140: 2f7f c73f 9a69 9b40 dddf 69bf 3c0f 94c0
00000150: 8e8a 09bd f6ee e23f 6a74 e83b ed1d d23f
00000160: 2128 0d3a fefe 0b40 d3a4 373a ba42 9140
00000170: 1e33 d1bd e9f9 5fc0 7ea8 aaba 7f1e e439
00000180: 02e9 9840 0a6a 31c0 6bcc 7f40 1046 083a
00000190: eecc 193f 9844 30c0 eee2 3ebb 1c8e 70b8
000001a0: c72e 1737 571b ff3a b094 59c0 5844 0b40
000001b0: f4a5 1640 0da4 3bc0 0ec5 1439 ee92 3a3e
000001c0: bbef e33f 70dd 2d40 aac6 ec3a 6624 bc3f
000001d0: b8c7 653b 5ce1 3040 cc13 003a edc6 6340
000001e0: 9b85 5ec0 105e 4dc0 b43b 803d 6d92 2cba
000001f0: c284 2e40 d736 ed39 66e1 26bf 3ec5 713f
0.00013971177 0.5146573 -0.00024498318 0.8254421 0.0005519095 -0.30440107 0.00018773664 0.9314586
-0.024150038 -0.00017647975 0.0002494949 -0.19043718 2.8437638 -0.00013793497 0.0005308169 -0.00021780319
-2.1554222 2.1970117 0.4350133 1.248389 -0.06027221 -2.48368 -0.0044779684 -0.09649912
0.0002660796 1.4138674 0.00012719199 1.1381066 -0.021589475 -3.3271594 -0.00037251934 0.00015162554
3.1519113 -1.0425283 -1.1029158 0.00019256961 -0.34060067 -1.9157989 0.00036171408 -6.531121e-05
0.00012142896 -0.00021865239 0.26005498 -0.9669296 2.3688726 -1.6609483 -0.00045704193 1.6193644
0.87832326 3.3682067 -1.9945774e-05 -3.6502051 -0.0034852298 1.7194189 0.00020732205 -2.5718694
-1.063498 1.8687208 0.16905166 -0.00021002268 1.4210819 0.000150852 0.49393308 -0.3453632
-0.000115456154 -1.5435643 -0.00093052915 -4.033237 -0.00087742106 0.83750343 6.705048e-05 0.9737607
0.061945595 0.0007166347 -7.3890165e-05 0.6967038 1.7918693 -3.431516e-05 -0.00038471143 -0.0012280649
1.5585688 4.856641 -0.91357213 -4.6268597 -0.0335794 1.7729175 0.0070939558 1.6415383
0.0005384703 2.1874385 0.0007005457 4.5393953 -0.10214828 -3.4996283 -0.0013020185 0.0004351027
4.7784433 -2.772097 3.9968517 0.00051984284 0.6007832 -2.7541866 -0.002912696 -5.735281e-05
9.011193e-06 0.0019463104 -3.3997002 2.1760464 2.353879 -2.9318879 0.00014187788 0.18220112
1.7807535 2.7166405 0.0018064578 1.4698608 0.0035061669 2.7637548 0.00048857625 3.5590165
-3.4769046 -3.2088661 0.062613875 -0.00065830984 2.726853 0.00045245021 -0.6518768 0.9444159

onnx::Conv_16 f4 [2]
00000000: 25f4 8641 119a e3c0
16.869211 -7.112557
