best_models/cnn2-64/value_head.onnx (onnx, 11206 bytes, 4 tensors)

layers.4.weight f4 [64, 36]
000000 ec 6f 8f 3d b4 b3 12 be 2a 9f bc 3d 72 c1 f4 bd
       0.07003769 -0.14326364 0.09210046 -0.11950959
000010 c1 36 48 be 53 f0 f8 be 92 5b cc 3d a4 0a 8e bd
       -0.19552137 -0.48620853 0.09978403 -0.06935623
000020 51 c3 6f 3c 62 ce 75 bd 22 7a 6d 3d 4a 37 f7 bd
       0.014633969 -0.060011275 0.057977803 -0.120710924
000030 37 18 32 be dd 6e 43 be b6 2f ba bd 76 1a 5d be
       -0.1739205 -0.1908526 -0.090911314 -0.21592125
000040 9a f2 10 bd 69 3f 23 c0 4b cd 17 be ce c9 b2 bc
       -0.035387613 -2.5507452 -0.14824407 -0.021824744
000050 ca 0a e1 bd a9 43 a6 be 40 85 4b be a1 c6 3d 3e
       -0.10988386 -0.32473496 -0.1987505 0.18532802
000060 90 6c 74 3c 5d 74 3c bc eb 69 c3 3d 50 76 0a bd
       0.014918461 -0.011502353 0.095416866 -0.033804238
000070 11 37 ae be 9c 22 47 be db 34 a5 be 26 b7 9f bd
       -0.34026387 -0.19446796 -0.32266888 -0.07798605
000080 2c d1 62 3d 8d a1 cd be 12 58 3c be dc 8b 25 bf
       0.055375263 -0.40162316 -0.18392971 -0.64666533
000090 96 59 3c be 93 70 4e 3e d4 5e ec bc 78 aa 44 3e
       -0.1839355 0.20160131 -0.028853811 0.19205654
0000a0 d9 a7 a2 3d 38 bb 23 bf c2 2c 62 bf 27 53 42 be
       0.07942171 -0.6395755 -0.88349545 -0.18977033
0000b0 23 e3 44 3d 72 3e 03 be 4c 14 f3 3b 23 0d df 3d
       0.048068177 -0.1281679 0.007418191 0.108911775
0000c0 f5 f7 89 bf 40 2f a5 be 7c ff 84 be 50 49 a8 be
       -1.0778795 -0.3226261 -0.2597617 -0.32868433
0000d0 d7 9f 9c bd 22 b2 16 be b5 88 45 be 1d c9 a3 be
       -0.076476745 -0.1471639 -0.19290431 -0.31989375
0000e0 c5 a0 25 bf 69 2b df be 36 c1 fc bd 83 e0 0f be
       -0.6469844 -0.43587807 -0.123415396 -0.14050488
0000f0 56 81 c1 be 62 59 90 3d 0e 99 a9 3d 46 f7 51 3c
       -0.37793988 0.070482984 0.08281146 0.012815302
000100 e5 5c 79 bc 8e 90 7c be 97 1e 46 bf 04 b2 00 be
       -0.015219902 -0.24664518 -0.77390426 -0.12567908
000110 fa 27 a1 bd 64 50 0a bf 81 ee 57 be 22 13 d5 bf
       -0.07868953 -0.54028916 -0.21087076 -1.6646464
000120 38 1f c6 3e 35 89 f0 bd d6 3a f1 bd 43 54 61 be
       0.38695693 -0.1174492 -0.117788 -0.220048
000130 74 5f af be 3b 4e b5 be 69 d4 18 be 78 ae 11 be
       -0.34252512 -0.35411248 -0.14924778 -0.14226711
000140 79 1c 15 bc fe f7 c9 be 34 73 79 be 4a 70 1c be
       -0.009101027 -0.39447016 -0.24360353 -0.1527721
000150 7a aa 4f be ca c5 91 be 6d 3e d5 be 12 21 b3 be
       -0.20279875 -0.28471214 -0.4164919 -0.34986168
000160 c9 ba a1 be 10 8f 04 be b6 05 67 be 5c 48 08 bd
       -0.31587818 -0.12945199 -0.22560772 -0.033272132
000170 ac ee e0 be 7b 81 bc bd fd 79 82 be 8c 20 d8 3c
       -0.43932092 -0.09204384 -0.25483695 0.026382707
000180 2c 2c 78 be 2e 02 11 be eb e6 39 bf de 47 14 bf
       -0.242356 -0.14160988 -0.7261798 -0.5792216
000190 16 46 f4 be e5 d6 b8 be da 43 cd bd 50 38 fd 3d
       -0.4770972 -0.36101452 -0.10022707 0.123642564
0001a0 e9 b2 04 bf 4c a5 35 bf 28 93 06 bf 79 fa 2a bf
       -0.51835495 -0.7095535 -0.5256829 -0.6678844
0001b0 ca c6 12 3d 23 fb e1 bc fc 33 9e 3d 54 e2 97 bd
       0.03583411 -0.027585572 0.07724759 -0.074162155
0001c0 ad 99 2b 3e 59 fd 02 3e 74 af 31 be e7 7b c4 3d
       0.16757841 0.12791957 -0.17352086 0.09593945
0001d0 e1 55 4a bd c3 0a 5c bb 7d 80 c3 3d 8a bb 98 be
       -0.049398307 -0.003357575 0.095459916 -0.2983058
0001e0 56 53 03 be 77 cf 4e be 15 f5 a2 bc db 1a 5d bd
       -0.12824759 -0.20196329 -0.019892255 -0.05398069
0001f0 d6 85 61 be 05 4d 7f bf 1a 3c 8a 3e 50 00 14 be
       -0.2202371 -0.997269 0.2699898 -0.14453244
000200 33 e8 4b be 4b e0 77 3c b1 e1 b1 3b 99 89 f1 3e
       -0.19912796 0.015129159 0.005428516 0.4717529
000210 ba 54 32 3d b9 83 f6 bd e5 3b 6e 3d 92 26 8b 3e
       0.043537833 -0.12036843 0.05816259 0.27177864
000220 67 87 21 bf 65 13 e9 bf 96 49 05 bf db 27 91 bc
       -0.6309723 -1.8209044 -0.5206541 -0.0177192
000230 ce aa 8b 3d 59 c3 69 be 95 96 86 bf ab b3 9c 3e
       0.06819688 -0.22828425 -1.0514704 0.30605826
000240 9d 5e 5c c0 41 b1 a1 ba c8 4a 8c be 7f e2 76 3c
       -3.4432747 -0.0012336151 -0.27400804 0.015068649
000250 a5 03 83 3d 8d 46 e2 3d 4c d4 8a bc f9 28 8a be
       0.063971795 0.11048613 -0.016946934 -0.26984385
000260 0b bf b2 3d 83 75 7b 3d a3 a0 61 bd 20 af 11 be
       0.08727845 0.061391365 -0.055084836 -0.14226961
000270 a6 ff 2d bf 9a cc 30 3e 46 e2 3d be 11 53 eb bd
       -0.67968214 0.1726555 -0.18543348 -0.11490453
000280 6a ac 91 be 92 93 de 3c df 1b c6 bc 18 c5 7d be
       -0.28451854 0.027169976 -0.024183212 -0.24782217
000290 2b 75 1f be e9 b2 7e be 2e c4 36 be 43 6a 20 3e
       -0.1557204 -0.24872936 -0.17848274 0.15665536
0002a0 ba c2 52 3d 85 8b bc bc e1 ca 6e be 06 35 80 be
       0.051455237 -0.023015747 -0.2331958 -0.25040454
0002b0 8b 97 a4 be 1c fa 15 3e 34 4d 43 3e 2b c8 cf 3c
       -0.32146868 0.1464619 0.1907242 0.025364002
0002c0 31 70 c6 3c c5 e7 4d be d8 5f 9f bd 87 dd 06 3e
       0.024223419 -0.20107944 -0.077819526 0.13170443
0002d0 9c e0 43 be 88 33 9f bc 9b 57 e3 be 19 cd 1c be
       -0.1912865 -0.019433752 -0.44402775 -0.15312614
0002e0 ba d3 25 be ee cf c9 be 56 3c a0 3d d2 31 ce 3d
       -0.16194049 -0.3941645 0.07824008 0.10068096
0002f0 ef 02 30 be cb 84 2d bd 37 88 e4 bc 2a cd a2 3d
       -0.17188619 -0.04236297 -0.027896984 0.07949288
000300 bb 7f 8d 3d e1 df 60 3d f7 df 2b bd d5 f2 9d bd
       0.06909128 0.054901008 -0.041961636 -0.07712332
000310 1f 14 14 3e 8a 72 00 3e 9b e8 17 bf ed b9 20 be
       0.144608 0.12543693 -0.593393 -0.15695925
000320 56 3d 65 be f4 fe d0 bd a1 86 30 be 14 4d 1b 3e
       -0.22386679 -0.102048784 -0.17238857 0.15166122
000330 f5 1d 8e bf 34 ea 1e c0 52 bc ff be 87 6e 60 be
       -1.1102892 -2.4830446 -0.49948364 -0.21917163
000340 5d 8e 18 be a2 31 f7 3d 0a 30 cc 3e b9 f8 c1 bf
       -0.14898057 0.120700136 0.398804 -1.5154029
000350 83 d8 17 3d e7 25 8b 3d ae 8c 3c bf a6 28 b1 be
       0.037071716 0.06794339 -0.7365216 -0.34601325
000360 43 23 44 bc 70 e9 fe bb b0 bf 01 3e f7 d0 ea 3d
       -0.011971298 -0.0077792928 0.12670779 0.11465638
000370 9d 28 aa bd 9e cf 1b be 0e 18 6e be c0 a9 5b be
       -0.083085276 -0.15215918 -0.23251364 -0.21451473
000380 1d d9 63 3c 4f 1e c4 3b ab c0 93 bd 29 23 89 3d
       0.013906744 0.0059850584 -0.07214483 0.066961594
000390 42 b6 90 be d7 aa 3f be 3b de 90 bd 3d 00 ad bd
       -0.28264052 -0.18717514 -0.07073637 -0.08447311
0003a0 05 5a f3 3c b7 bb 51 bc ea 5d 59 3e ce 73 2a bd
       0.02970601 -0.012801102 0.21227232 -0.041614346
0003b0 57 01 89 bd 8f ea b1 3d c9 1a 16 3d d1 e9 4b 3d
       -0.06689709 0.086873166 0.036646638 0.04978353
0003c0 e9 62 9d 3e dd 86 93 3e bf de 15 3e 3f 38 fd bc
       0.30739525 0.2881383 0.14635752 -0.03091061
0003d0 7e 29 01 3e 9e 37 d1 3d 06 a5 4e c0 5c 65 d6 be
       0.12613484 0.10215686 -3.2288222 -0.41874206
0003e0 b6 1b 14 3e f7 62 12 bd 1d bf a9 3d a0 f4 01 bf
       0.14463696 -0.03573891 0.08288405 -0.50763893
0003f0 83 6e ef 3c 60 50 bb 3d 9d 18 ec 3d 4b ef e3 3e
       0.0292275 0.0914619 0.11528132 0.44518504

layers.4.bias f4 [64]
000000 c4 25 38 3e 2c 3a cb 3e 65 b2 ac bd 79 2c cf be
       0.17983156 0.3969282 -0.084324636 -0.40463617
000010 9c 71 09 be a6 e7 3c 3c f1 cf 17 bf 2a 1b 07 bd
       -0.13422245 0.011529839 -0.5930167 -0.03298489
000020 35 c2 01 3d 1f b6 31 bd b4 9b af 3e 9e ec 5c 3e
       0.03167935 -0.043386575 0.3429848 0.21574637
000030 a4 60 41 3d e8 9a 90 be d3 f3 14 bf 8c 3a de 3d
       0.047211304 -0.28243184 -0.58184546 0.10851011
000040 af 28 bc 3e b5 07 ae be 27 96 40 be cd 35 25 be
       0.3674979 -0.33990255 -0.18807279 -0.16133805
000050 d8 8a a5 3e 2f 58 08 bf 48 d0 5c 3d a6 95 d9 be
       0.32332492 -0.5325956 0.05390957 -0.42496985
000060 54 9c a2 3d ac 80 57 3e 35 62 90 3d 63 8a 19 3d
       0.079399735 0.21045178 0.070499815 0.03748549
000070 cb 06 a7 3d 21 a9 c2 be fd 90 99 be 69 39 97 bf
       0.081555925 -0.3801966 -0.2999343 -1.1814395
000080 d7 ff b7 3e 19 92 28 3d ba 56 1b 3e 3e 66 32 be
       0.35937378 0.041154955 0.15169802 -0.17421815
000090 70 59 ed be 1f 32 73 bf 49 d5 9c bd 62 45 73 bf
       -0.46357298 -0.94998354 -0.076578684 -0.95027745
0000a0 25 89 49 be 06 56 46 be ab 57 24 bf cc 9a 22 be
       -0.19681223 -0.19368753 -0.6419627 -0.15879363
0000b0 53 77 ef ba 99 c9 5d bc 46 88 49 3e 82 5c f6 be
       -0.0018269814 -0.013536834 0.1968089 -0.48117453
0000c0 00 8b 25 3f 49 b6 3d be 20 4c e9 3d 2a 96 16 3f
       0.6466522 -0.18526568 0.11391473 0.5882288
0000d0 90 e9 82 bf 15 fe 38 bd 65 ae 8f 3e e9 de 62 3c
       -1.0227528 -0.045164187 0.2806274 0.013847091
0000e0 ce 51 36 be 6f 93 69 be c7 16 b4 bd ac 66 e7 be
       -0.17804644 -0.22810148 -0.08793407 -0.4519552
0000f0 c6 75 ca be 62 47 17 3e fa 77 74 3e 4d a4 6e 3b
       -0.3954298 0.14773324 0.23873892 0.003641385

layers.6.weight f4 [1, 64]
000000 10 74 8b 3e c9 93 0b 3f 57 7b 92 be db 57 0d be
       0.27236986 0.5452238 -0.28609726 -0.13803045
000010 3f c2 14 3e 94 a1 71 3e bd dc b1 bd 0e 51 bb 3e
       0.14527224 0.23596793 -0.086846806 0.36585277
000020 c7 4c c7 be 0e 32 89 be a4 2c da be f4 22 b9 be
       -0.38925764 -0.26796 -0.42612183 -0.3615948
000030 ef 87 85 be 2f 73 42 3e ed 77 ac bd 5a bf dc bd
       -0.26080272 0.18989252 -0.084213115 -0.10778685
000040 44 47 ff 3e 30 e2 89 3d 46 63 52 be ca ae f9 bd
       0.4985906 0.06732595 -0.20545682 -0.121915415
000050 d1 b9 44 3f 32 ba 64 3d d6 ce a8 be dc 0c 6b bd
       0.76846033 0.055841632 -0.32970303 -0.05738531
000060 ea ba 8a 3e eb 86 1f be eb 63 92 be 85 9a e4 3e
       0.2709573 -0.15578811 -0.28591856 0.4464914
000070 fc 53 26 be 44 bb e7 bd 06 d6 b2 bd f2 61 9a bd
       -0.16242975 -0.11315015 -0.08732228 -0.07538213
000080 8d 29 b9 3e 95 f1 8e be 3b f3 a5 be 06 ed 7b be
       0.36164513 -0.27918687 -0.32412133 -0.24602136
000090 a9 45 f1 bd d4 cd 6e bd 67 09 a6 3e 50 41 8b bd
       -0.11780865 -0.05830176 0.32429048 -0.06799567
0000a0 6c f6 f3 bd bf 2e 1a be 3f e3 c3 bd 8a 84 ed bd
       -0.119122356 -0.15056895 -0.09564828 -0.115975454
0000b0 8d af b4 be e5 55 b2 be 65 4f c8 be 98 3a 94 bd
       -0.35290185 -0.34831157 -0.39123073 -0.07237738
0000c0 0b 15 33 3f 94 a2 31 be 5d fd 16 3e 1b 9f 13 bf
       0.69953984 -0.17347175 0.14745088 -0.5766465
0000d0 e2 fe 32 3e be 3b 89 be 81 21 bd 3e 1f 47 17 be
       0.17480043 -0.26803392 0.36939624 -0.14773224
0000e0 82 e5 e6 3d 49 e8 0e 3e 23 86 8b be 0a ac 10 be
       0.11274244 0.13955797 -0.27250776 -0.14128128
0000f0 19 73 01 be ba 62 28 be 79 e5 a2 3e 7c 43 81 3e
       -0.12641563 -0.16443911 0.318157 0.252468

onnx::Conv_20 f4 [1, 64, 1, 1]
000000 64 15 24 41 0e d5 07 c1 17 1f bd c1 dc 61 48 c1
       10.255222 -8.489515 -23.64018 -12.523891
000010 e8 91 9f c0 8b 5e 9b 42 dc 46 dd 40 cb bd 40 3c
       -4.986561 77.684654 6.9149 0.011764
000020 ba 85 0f 42 47 b6 7e 3e 7f be f5 c0 0d d6 91 3f
       35.880592 0.24874221 -7.679504 1.1393448
000030 60 09 8f 3f f1 5c 7f bd f1 2d 06 c0 6f 4a 7c 40
       1.1174736 -0.062344495 -2.096554 3.942043
000040 34 5b 5d c0 d2 4e 2c 40 85 ee 9b 41 a6 00 16 3f
       -3.4586916 2.6923108 19.491465 0.5859474
000050 9c 05 a8 c2 93 18 2c c1 63 7b 22 40 2a 47 a6 c2
       -84.010956 -10.756 2.538781 -83.13899
000060 ec c8 25 40 17 7f 81 c1 83 02 c0 41 d5 59 cf c0
       2.5903883 -16.187056 24.001226 -6.479716
000070 e7 52 e1 c2 0c 12 a8 bf 04 3f c4 40 4f d4 7a c0
       -112.66192 -1.3130507 6.1326923 -3.9192083
000080 fc cb 24 c0 c7 a5 c3 41 81 40 79 c1 6a 68 70 41
       -2.5749502 24.455946 -15.578248 15.025492
000090 96 ef ad 42 88 d3 bb 3e 09 83 9c c1 78 f0 4f c0
       86.96794 0.36684823 -19.563982 -3.249052
0000a0 0e c4 30 41 b3 32 b1 41 87 4c 35 c1 76 72 8d c1
       11.047865 22.149755 -11.331183 -17.68089
0000b0 00 cf 1a 3f d5 5e e0 40 af e3 03 c1 e1 98 56 c1
       0.60472107 7.011576 -8.243087 -13.412324
0000c0 9b ab f7 c1 4a 7f 8a 40 82 e5 53 41 8c 25 47 c0
       -30.958792 4.328038 13.243532 -3.1116667
0000d0 4f 96 05 41 cc 9b 32 41 3f da 8b 3e d3 52 ec 3f
       8.349196 11.163036 0.27314946 1.8462776
0000e0 ed df 20 3e b3 84 3d 40 78 c9 72 c3 ee 90 7b c1
       0.15710421 2.9612243 -242.78699 -15.722883
0000f0 dd 0d 01 3d 00 ea 6c 41 8e 21 c3 40 f1 db 88 42
       0.03150736 14.807129 6.097846 68.42957
